vae.pth (torch_old, 344925 bytes, 8 tensors)

conv1.weight f4 [16, 1, 3, 3]
-0.5058332 -0.79091054 -0.4125068 -1.068039 -0.01583445 0.30950183 -0.6936759 -0.24630392
0.4863312 -0.05675164 -0.2816281 -0.006286296 0.27104634 0.041436166 -0.062048115 -0.053572092
-0.1944586 -0.18545593 -0.83720386 -0.3857565 -0.94183797 -0.08564919 1.0273201 -0.5189882
-0.23703769 -0.8267713 -1.0962875 0.0024461343 0.51000154 0.021327555 -0.16398413 0.41139746
-0.06339068 -0.3839904 0.3034687 0.2156483 0.24813938 -0.3336842 0.019224897 0.14217335
-0.37292078 -0.33376604 -0.41997793 -0.26249766 -0.69561815 -0.18405502 -0.42001882 -0.24953544
-0.22176701 -0.5680375 -0.7549954 -0.32292938 -0.41882145 -0.38334134 -0.45058686 0.016094157
0.1861201 -0.60548943 -0.0088461405 0.14899997 -0.85308886 -0.78932714 0.015535879 -0.09507126
-0.50546765 0.09848316 -0.42713207 -0.5811292 -0.15461197 -0.7735847 -0.7167847 -0.54670316
-0.18002312 0.020658165 -0.108338684 -0.17721415 -0.18017411 -0.33134556 0.060861796 0.07537928
-0.00856784 0.38761124 0.10769749 -0.8275456 0.24995366 0.4947377 -0.3908341 -0.39885193
0.6643063 0.23163164 -0.43112016 0.04400061 0.9285076 0.42272225 0.68992335 -0.42018464
0.13088764 -0.38503662 -0.91563696 -0.05996928 0.033973187 -0.20259744 0.10506139 0.18931323
-0.505759 0.0861399 -0.30934024 0.1235943 0.30770966 0.40581656 0.53646845 -0.44809204
0.39029467 -0.20494317 -0.9750307 -0.91962695 -0.6004407 -0.09887977 -0.8002808 -0.31803498
0.050071217 -0.08485003 -0.00029222167 0.3401534 0.45713067 0.019901773 0.4242112 -0.00940921
-0.4315664 0.30915058 -0.050441302 -1.2539194 0.23743533 -0.6879087 -0.97891635 0.061718915
-0.27901167 0.15079454 0.081739984 0.18611524 -0.4105855 -0.18974431 -0.11777042 0.14902131
00000000: 497e 01bf 1d79 4abf 1734 d3be 80b5 88bf
00000010: 40b7 81bc 0677 9e3e be94 31bf 1837 7cbe
00000020: 6700 f93e 6874 68bd 8f31 90be 46fd cdbb
00000030: 96c6 8a3e f8b8 293d 2a26 7ebd 696e 5bbd
00000040: 2820 47be 29e8 3dbe fe52 56bf e081 c5be
00000050: 4b1c 71bf d868 afbd 3a7f 833f 69dc 04bf
00000060: 02ba 72be 49a7 53bf 2653 8cbf 534f 203b
00000070: 768f 023f 20b7 ae3c 75eb 27be b0a2 d23e
00000080: f9d2 81bd 649a c4be 4060 9b3e e8d2 5c3e
00000090: 4018 7e3e a8d8 aabe 887d 9d3c e495 113e
000000a0: 79ef bebe 62e3 aabe 5907 d7be 1866 86be
000000b0: 0814 32bf eb78 3cbe b50c d7be 3886 7fbe
000000c0: e416 63be e86a 11bf 6147 41bf 0057 a5be
000000d0: c46f d6be 5145 c4be 52b3 e6be e5d7 833c
000000e0: 4496 3e3e 5b01 1bbf 67ef 10bc 7393 183e
000000f0: 0864 5abf 5811 4abf 338a 7e3c b9b4 c2bd
00000100: 5466 01bf 8ab1 c93d 0eb1 dabe e2c4 14bf
00000110: 9a52 1ebe a609 46bf 347f 37bf bdf4 0bbf
00000120: fb57 38be 503b a93c ace0 ddbd a077 35be
00000130: 907f 38be 20a6 a9be 384a 793d 7460 9a3d
00000140: 2060 0cbc fb74 c63e 8090 dc3d 07da 53bf
00000150: daf3 7f3e 434e fd3e 681b c8be 5236 ccbe
00000160: fa0f 2a3f d830 6d3e c8bb dcbe fc39 343d
00000170: adb2 6d3f 0d6f d83e d19e 303f 7122 d7be
00000180: 6907 063e 8523 c5be 2f67 6abf 59a2 75bd
00000190: 7827 0b3d b475 4fbe 6d2a d73d 54db 413e
000001a0: 6c79 01bf 1e6a b03d d861 9ebe 021f fd3d
000001b0: 1f8c 9d3e 30c7 cf3e ff55 093f 526c e5be
000001c0: b4d4 c73e 9fdc 51be 9d9b 79bf ac6c 6bbf
000001d0: 7bb6 19bf 7a81 cabd 34df 4cbf 7bd5 a2be
000001e0: 7a17 4d3d dac5 adbd 5435 99b9 9628 ae3e
000001f0: 080d ea3e 0b09 a33c 3632 d93e 1629 1abc
00000200: 45f6 dcbe fc48 9e3e 8a9b 4ebd 6e80 a0bf
00000210: 3f22 733e c91a 30bf 439a 7abf f9cc 7c3d
00000220: 9eda 8ebe e269 1a3e 4b67 a73d fe94 3e3e
00000230: 4338 d2be 554c 42be 9e31 f1bd 0b99 183e

conv1.bias f4 [16]
-0.23829041 -0.31649342 -0.45308277 -0.6701588 -0.4574656 -0.056657657 -0.49113995 -0.5419587
-0.17415616 -0.47141287 -0.89269865 -0.42227376 -0.007757193 -0.091175854 -0.47232637 -0.37771133
00000000: 6702 74be 6d0b a2be 77fa e7be 878f 2bbf
00000010: ee38 eabe dc11 68bd b276 fbbe cebd 0abf
00000020: fe55 32be 075d f1be e687 64bf 4434 d8be
00000030: 0d30 febb 68ba babd c3d4 f1be 6163 c1be

conv2.weight f4 [32, 16, 3, 3]
0.00752656 -0.06529741 -0.044423517 -0.14988567 -0.14617649 0.0048455107 -0.027643682 -0.13084716
-0.019143641 -0.09703681 0.0014898719 -0.14093743 0.03948126 0.07030442 -0.010128122 0.013928072
-0.005755206 0.04377774 -0.061142404 -0.040203333 -0.048134085 -0.092549875 -0.055392805 -0.04458795
-0.09274166 -0.11924965 -0.14540939 -0.1448347 -0.09848187 0.005158696 -0.14159851 -0.061773762
-0.051232755 -0.007950389 -0.03921522 -0.0819954 -0.084179044 -0.020883711 -0.13495786 -0.10850126
0.007120882 -0.11745985 -0.116799355 0.013705491 -0.02118808 -0.049004626 -0.14883558 -0.044908393
-0.14393727 0.0054527572 -0.14751591 -0.0050347853 -0.10917298 -0.024739103 -0.0056601916 0.00020432878
-0.010942701 -0.01511431 0.019639615 0.012828895 -0.022075975 0.0012483059 -0.120150775 0.13391417
0.0687408 -0.012550355 0.054693334 -0.04058283 0.019625071 0.07227337 -0.14260933 0.14050226
-0.017403334 -0.052862257 -0.053769063 0.049119897 -0.082792535 0.058752544 -0.0097261295 0.013446152
0.010644145 -0.138326 -0.11429695 -0.07647896 -0.051679038 -0.0069312234 -0.09088255 -0.0019561604
-0.019381037 -0.13669005 0.022724697 -0.061194506 -0.13647033 -0.12477732 -0.016605955 -0.12298705
-0.07007561 -0.04948818 -0.04020816 -0.13966654 -0.12715548 -0.13545151 -0.030471047 -0.0014032739
-0.033649143 -0.071425065 -0.07533123 -0.0049091694 0.0060608373 0.012380237 -0.056389198 -0.109290004
0.06459621 -0.09027105 -0.08261424 -0.070707835 -0.10488599 -0.06892007 -0.07007943 -0.051313154
-0.14309275 -0.10156559 -0.07483642 -0.0902592 -0.051588103 -0.057373516 -0.12564674 -0.14286238
-0.31296453 -0.05793534 -0.14362477 -0.161808 -0.018722743 -0.057413843 -0.28728497 0.0074456898
0.011594447 -0.11201624 -0.005271865 -0.061485704 -0.12920462 -0.0076076915 0.016756212 -0.024100363
-1.6771526 0.19367038 1.1852548 -0.09095703 -2.3779435 -0.35841253 0.53294945 -0.196752
0.4440748 -0.069894016 -0.07899251 0.011270857 0.08547978 0.059824433 -0.0075872187 -0.004698765
-0.041730754 0.12917888 0.43024668 -0.23246236 -0.53222895 -0.35794723 1.1109029 -0.3574398
-0.39537165 0.04713245 -0.43353984 -1.0650722 -0.003184001 0.7793572 -0.5544327 -2.114578
0.4998668 0.38717586 0.21889497 -0.67734635 -0.39594564 0.05074207 0.1797232 -0.93144464
-0.5465019 0.025876278 -0.08170197 -0.18577543 -0.7720622 -0.21840276 -0.042132307 -0.41948336
-0.12568137 0.022522759 -0.0680676 -0.48364726 -0.22507863 -0.058252215 0.39381838 -0.12247254
0.3938341 -0.2824732 -0.3106887 0.18037328 0.34312102 0.24770485 -0.15079807 0.29032493
0.286257 0.3343305 -0.02147061 -0.5025876 -0.027224718 0.004598946 -0.14595714 0.34114304
-0.07897845 -0.0071041584 -0.000111721456 0.0701927 0.06644801 0.022201478 0.042731725 -0.033875674
-0.029370707 -1.1034517 -0.79909664 -0.41419822 -0.31096637 -0.46177268 -1.6070896 0.16922967
0.801229 -0.2926537 -0.8902475 -0.3867691 0.50527376 -1.349809 -0.813108 -0.3498862
-0.05124429 -0.92140365 -1.2193538 -0.95356333 -0.23921145 -0.060243268 -0.006216068 -0.20227396
-0.4371597 0.11256389 0.08947428 -0.105918854 0.024107095 -0.055567298 -0.1337834 -1.5491205
00000000: 5da1 f63b a6ba 85bd 6ff5 35bd a17b 19be
00000010: 4aaf 15be 17c7 9e3b 0175 e2bc ccfc 05be
00000020: 20d3 9cbc 3cbb c6bd ce47 c33a e751 10be
00000030: 1ab7 213d c4fb 8f3d 6cf0 25bc 9132 643c
00000040: 2b96 bcbb 4a50 333d 7570 7abd 40ac 24bd
00000050: 3f28 45bd ca8a bdbd 91e3 62bd dba1 36bd
00000060: 57ef bdbd 2939 f4bd 33e6 14be 8c4f 14be
00000070: ddb0 c9bd 470a a93b 33ff 10be 7c06 7dbd
00000080: 70d9 51bd 5942 02bc 23a0 20bd 34ed a7bd
00000090: 1066 acbd 5114 abbc 6532 0abe e935 debd
000000a0: 4a56 e93b ca8e f0bd 8034 efbd ff8c 603c
000000b0: a092 adbc 13b9 48bd 5b68 18be ddf1 37bd
000000c0: 4b64 13be 0bad b23b 690e 17be d7fa a4bb
000000d0: 1596 dfbd a9a9 cabc 2179 b9bb 1741 5639
000000e0: 0449 33bc 03a2 77bc 42e3 a03c 4930 523c
000000f0: add8 b4bc 329e a33a 9c11 f6bd cc20 093e
00000100: fac7 8c3d 01a0 4dbc 1e06 603d 2e3a 26bd
00000110: c2c4 a03c 1004 943d 2e08 12be d3df 0f3e
00000120: 7091 8ebc 1886 58bd f33c 5cbd f231 493d
00000130: 228f a9bd 82a6 703d 585a 1fbc 404d 5c3c
00000140: c864 2e3c 55a5 0dbe 8514 eabd 00a1 9cbd
00000150: 66ad 53bd 511f e3bb a120 babd ed32 00bb
00000160: fbc4 9ebc 7af8 0bbe 2529 ba3c 17a7 7abd
00000170: e1be 0bbe 408b ffbd 3609 88bc a2e0 fbbd
00000180: cd83 8fbd 1eb4 4abd 50b1 24bd bf04 0fbe
00000190: 0c35 02be cdb3 0abe 6b9e f9bc 0fee b7ba
000001a0: afd3 09bd 4e47 92bd 4347 9abd 19dd a0bb
000001b0: fd99 c63b 7ad6 4a3c 5cf8 66bd 70d3 dfbd
000001c0: 054b 843d 07e0 b8bd a831 a9bd 45cf 90bd
000001d0: 77ce d6bd f725 8dbd ce85 8fbd be2d 52bd
000001e0: e886 12be 9f01 d0bd d643 99bd d1d9 b8bd
000001f0: 0c4e 53bd 7e00 6bbd 8aa9 00be 844a 12be
00000200: e33c a0be 9b4d 6dbd 5f12 13be ffb0 25be
00000210: 7060 99bc c72a 6bbd 0417 93be f9fa f33b
00000220: a3f6 3d3c c568 e5bd 9cbf acbb 6fd8 7bbd
00000230: 374e 04be f149 f9bb 5344 893c 206e c5bc
00000240: f0ac d6bf 8751 463e 6eb6 973f ae47 babd
00000250: 3a30 18c0 d981 b7be 606f 083f 5b79 49be
00000260: c65d e33e 9824 8fbd d3c6 a1bd 67a9 383c
00000270: 0610 af3d 770a 753d 349e f8bb 19f8 99bb
00000280: deed 2abd 7847 043e 4b49 dc3e 9d0a 6ebe
00000290: 2840 08bf dc44 b7be 1132 8e3f 5902 b7be
000002a0: 276e cabe f50d 413d eff8 ddbe 4954 88bf
000002b0: acaa 50bb f483 473f 4def 0dbf 3f55 07c0
000002c0: 8bee ff3e ea3b c63e 0126 603e 9266 2dbf
000002d0: 63b9 cabe ebd6 4f3d 5c09 383e 2873 6ebf
000002e0: 8ce7 0bbf 7dfa d33c 5d53 a7bd ea3b 3ebe
000002f0: dea5 45bf f9a4 5fbe ed92 2cbd 86c6 d6be
00000300: 9eb2 00be a681 b83c 0767 8bbd 9da0 f7be
00000310: 037b 66be e099 6ebd 90a2 c93e e2d2 fabd
00000320: a0a4 c93e 54a0 90be 9712 9fbe c6b3 383e
00000330: 8fad af3e 57a6 7d3e cf6a 1abe 78a5 943e
00000340: 4790 923e 5e2d ab3e 22e3 afbc 95a9 00bf
00000350: 5f06 dfbc c1b2 963b ca75 15be 4daa ae3e
00000360: 74bf a1bd 00ca e8bb 004c eab8 31c1 8f3d
00000370: e515 883d e0df b53c 7607 2f3d 38c1 0abd
00000380: d69a f0bc e83d 8dbf 9991 4cbf ca11 d4be
00000390: fc36 9fbe 786d ecbe 1db5 cdbf 8b4a 2d3e
000003a0: 581d 4d3f b5d6 95be 43e7 63bf 9906 c6be
000003b0: 9f59 013f 8bc6 acbf d927 50bf 4924 b3be
000003c0: 88e5 51bd 1ce1 6bbf c913 9cbf ba1c 74bf
000003d0: d9f3 74be a5c1 76bd 28b0 cbbb e820 4fbe
000003e0: 65d3 dfbe e687 e63d 4b3e b73d fceb d8bd
000003f0: 3e7c c53c 899a 63bd 84fe 08be 9549 c6bf

conv2.bias f4 [32]
-0.1253449 -0.34154463 -0.35089934 -0.43166795 -0.070703536 -0.041364193 -0.14037913 -0.43496707
-0.04348228 -0.09712441 -0.6318318 -0.393184 -0.123429246 -0.30195364 -0.10142805 -0.12730931
-0.051598877 -0.5155956 -0.3600044 -0.27398527 -0.267611 -0.6931979 -0.2646599 -0.14466065
-0.18353869 -0.26544866 -0.4545518 -0.43184665 -0.04683191 -0.4519497 -0.08268343 -1.2242618
00000000: 6a5a 00be f0de aebe 14a9 b3be 9503 ddbe
00000010: 04cd 90bd 806d 29bd 8cbf 0fbe 01b4 debe
00000020: 7a1a 32bd 2ae9 c6bd bbbf 21bf 6a4f c9be
00000030: 79c8 fcbd ab99 9abe 82b9 cfbd 5f5d 02be
00000040: 5859 53bd 13fe 03bf 7f52 b8be cc47 8cbe
00000050: 4f04 89be 6b75 31bf 8181 87be ec21 14be
00000060: 91f1 3bbe e3e8 87be 03bb e8be 011b ddbe
00000070: d1d2 3fbd f365 e7be ee55 a9bd 9cb4 9cbf

fc1.weight f4 [100, 800]
-0.06937508 0.09161212 -0.07777945 -0.090752795 -0.06313992 0.03449473 -0.08000198 -0.08130474
-0.063960135 0.07795009 -0.03827098 -0.02785204 -0.043929145 -0.09350071 -0.074055605 -0.025449436
-0.07671696 0.03108062 -0.030684026 0.025067054 -0.027773907 -0.02985727 0.09319842 -0.06738825
-0.012162948 -0.0919163 -0.25493142 -0.29979852 -0.27448592 -0.34775227 -0.113586165 -0.46961796
-0.44664678 -0.37022975 -0.35416397 0.006051845 -0.23759724 -0.26338375 -0.49021405 -0.5910673
-0.27500036 -0.0044796006 0.10412867 0.03064525 -0.3321584 0.10538068 -0.11401176 -0.35103723
-0.029002706 -0.3267408 -0.10605049 -0.12833188 -0.30840018 -0.46962863 -0.24626866 0.07098123
-0.051973198 -0.17343394 -0.15083309 -0.22002935 -0.22016689 -0.19454178 -0.28759727 -0.6227719
-0.39561287 0.20381549 0.18704577 0.24252984 -0.5548875 -0.19397317 0.31074387 0.07918459
-0.3727055 -0.26966476 -0.25546998 -0.0020886138 -0.041086577 -0.039444774 -0.06367967 -0.024711968
-0.1908046 -0.2251359 -0.32675982 -0.087954745 -0.03626884 0.10159618 0.21216778 -0.038888264
-0.08610902 -0.08649102 -0.026084656 -0.21251875 -0.031793565 -0.055813294 0.043880202 -0.28175485
0.019781489 -0.073112726 -0.014710106 0.06442979 -0.47110835 -0.32135332 -0.14791444 -0.028493602
-0.062256366 -0.091869466 -0.27086216 -0.46413147 -0.39933643 0.31046587 0.34407014 0.32478535
-0.13547136 -0.091857195 0.21618143 -0.23510925 -0.19082506 -0.28557283 -0.21479684 -0.23498812
-0.11135533 -0.10593435 -0.31699538 -0.63739157 -0.09304498 -0.058495685 -0.036244333 -0.075437546
-0.062365174 -0.08489435 -0.030126411 0.0542975 -0.072459966 -0.043761045 -0.060924724 -0.07283859
-0.08336459 -0.024775267 -0.055309426 -0.027058514 -0.026138 -0.094972 -0.06428678 -0.072535425
-0.09051435 -0.07854443 -0.047124393 -0.06941059 -0.038192734 -0.09060348 -0.17122675 0.24406043
-0.09754778 -0.050675355 -0.024018949 -0.2454845 -0.15005435 -0.039382815 -0.38160098 0.2426769
-0.400612 -0.16979413 0.08488917 -0.106243744 0.12982062 -0.27144337 -0.25132814 -0.025829239
-0.4337217 0.4915231 -0.48248804 -0.29769602 0.14174388 -0.11986425 0.1602949 -0.11545281
-0.21882837 -0.17907946 -0.3191967 -0.4148505 0.017396666 -0.06655248 0.006236367 -0.39657336
-0.35170105 0.2724817 -0.2717122 -0.52507436 -0.23136233 -0.31414127 -0.26469517 -0.2682547
-0.22393434 -0.18311572 -0.27632454 -0.39605817 -0.12538955 -0.27316484 -0.25266767 -0.3233913
0.3382005 0.07938266 -0.10311443 0.09836109 0.22002473 -0.40615067 0.38034374 -0.041359037
-0.10104466 -0.26541966 -0.22986501 -0.14019875 0.06271026 -0.2922781 -0.15504092 -0.39941576
0.020312471 -0.08694832 -0.30781603 -0.124709375 -0.2268111 -0.20015311 0.12729578 -0.16223428
-0.21736741 0.08596009 -0.08534801 0.0378761 -0.03993839 -0.024951769 -0.08292952 0.047997132
-0.04786298 -0.062979385 -0.08133657 0.029391408 0.06053204 -0.06454257 -0.038535524 -0.06641561
0.032177016 -0.06324083 -0.06899544 -0.0891695 -0.060961034 -0.032015774 -0.037328705 -0.03302839
-0.07199863 -0.033039402 -0.04743174 -0.03907883 -0.08360992 -0.100552656 -0.052707125 -0.025761198
00000000: 8614 8ebd 239f bb3d d54a 9fbd 9adc b9bd
00000010: 814f 81bd 594a 0d3d 14d8 a3bd 1983 a6bd
00000020: 88fd 82bd 4ca4 9f3d 08c2 1cbd f629 e4bc
00000030: 0cef 33bd 4d7d bfbd 77aa 97bd 567b d0bc
00000040: c81d 9dbd c99c fe3c 115d fbbc 6c59 cd3c
00000050: 1b86 e3bc 3c97 f4bc d0de be3d da02 8abd
00000060: 1a47 47bc 9d3e bcbd 5f86 82be 317f 99be
00000070: 6b89 8cbe 960c b2be dd9f e8bd c471 f0be
00000080: e3ae e4be c18e bdbe fb54 b5be 8e4e c63b
00000090: b14c 73be 3cda 86be 56fd fabe 3050 17bf
000000a0: d9cc 8cbe 9dc9 92bb 6a41 d53d bf0b fb3c
000000b0: aa10 aabe d3d1 d73d ff7e e9bd 27bb b3be
000000c0: 1597 edbc 924a a7be 0031 d9bd 6f69 03be
000000d0: a1e6 9dbe 2a73 f0be da2d 7cbe 9b5e 913d
000000e0: d9e1 54bd ab98 31be fd73 1abe 604f 61be
000000f0: 6e73 61be f635 47be f33f 93be fb6d 1fbf
00000100: c58d cabe 02b5 503e ed88 3f3e be59 783e
00000110: 1b0d 0ebf e7a0 46be d219 9f3e 882b a23d
00000120: 41d3 bebe 8011 8abe f6cc 82be 20e1 08bb
00000130: 664a 28bd d890 21bd 7d6a 82bd c170 cabc
00000140: 4862 43be 068a 66be 104d a7be 9e21 b4bd
00000150: a38e 14bd a811 d03d 8342 593e 4d49 1fbd
00000160: ed59 b0bd 3422 b1bd 7daf d5bc 849e 59be
00000170: f839 02bd 7b9c 64bd babb 333d 2c42 90be
00000180: ca0c a23c 20bc 95bd a802 71bc c4f3 833d
00000190: 1d35 f1be 6c88 a4be e276 17be 6a6b e9bc
000001a0: 8800 7fbd 0f26 bcbd 72ae 8abe a4a2 edbe
000001b0: d375 ccbe 62f5 9e3e f629 b03e 444a a63e
000001c0: 01b9 0abe a01f bcbd aa5e 5d3e 7bc0 70be
000001d0: a567 43be 9a36 92be b4f3 5bbe baa0 70be
000001e0: 430e e4bd 1cf4 d8bd 384d a2be 182c 23bf
000001f0: 5e8e bebd 2c99 6fbd f074 14bd 007f 9abd
00000200: a072 7fbd 17dd adbd aacb f6bc 0e67 5e3d
00000210: e465 94bd c83e 33bd 348c 79bd 662c 95bd
00000220: 0ebb aabd 80f5 cabc 238c 62bd d1a9 ddbc
00000230: 5c1f d6bc ae80 c2bd caa8 83bd 748d 94bd
00000240: 965f b9bd e7db a0bd 8205 41bd 2427 8ebd
00000250: fc6f 1cbd 518e b9bd 1156 2fbe faea 793e
00000260: 21c7 c7bd f690 4fbd 63c3 c4bc 4a60 7bbe
00000270: d9a7 19be e04f 21bd 3461 c3be 4b80 783e
00000280: 041d cdbe 83de 2dbe 60da ad3d 5296 d9bd
00000290: b2ef 043e a0fa 8abe 15ae 80be d797 d3bc
000002a0: c510 debe eaa8 fb3e ac08 f7be 9d6b 98be
000002b0: 4f25 113e 637b f5bd 5924 243e 8672 ecbd
000002c0: 8b14 60be 9b60 37be c06d a3be 4967 d4be
000002d0: 7483 8e3c ab4c 88bd 705a cc3b aa0b cbbe
000002e0: 2912 b4be b982 8b3e dd1d 8bbe 466b 06bf
000002f0: 3fea 6cbe 20d7 a0be 2086 87be ae58 89be
00000300: 0b4f 65be b082 3bbe 697a 8dbe 23c8 cabe
00000310: 1e66 00be 43dc 8bbe a85d 81be 8b93 a5be
00000320: 9e28 ad3e 6093 a23d a92d d3bd 8a71 c93d
00000330: 2a4e 613e fbf2 cfbe 6abc c23e 1868 29bd
00000340: 81f0 cebd 16e5 87be bc61 6bbe 4390 0fbe
00000350: 3d6e 803d 7aa5 95be 0cc3 1ebe 3980 ccbe
00000360: 5766 a63c f611 b2bd 109a 9dbe a167 ffbd
00000370: 2b41 68be f0f4 4cbe d359 023e be20 26be
00000380: 9095 5ebe d80b b03d f0ca aebd f823 1b3d
00000390: 7096 23bd a767 ccbc f4d6 a9bd a498 443d
000003a0: f90b 44bd 56fb 80bd ca93 a6bd 40c6 f03c
000003b0: 72f0 773d e52e 84bd 6dd7 1dbd e804 88bd
000003c0: 0ccc 033d 6984 81bd 7b4d 8dbd 809e b6bd
000003d0: 47b2 79bd f922 03bd fce5 18bd c748 07bd
000003e0: 0574 93bd 5354 07bd c947 42bd 2011 20bd
000003f0: ae3b abbd 8dee cdbd 6de3 57bd 2609 d3bc

fc1.bias f4 [100]
-0.39444843 -0.3355239 -0.010376233 -0.044612918 -0.7043641 -0.043135136 -0.20717469 -0.10354561
-0.08462039 -0.7266106 -0.028662484 -0.13713706 -0.037024528 -0.32021376 -0.060614627 -0.06542549
0.033554327 -0.13794649 -0.0718803 -0.85619277 -0.08366498 -0.040395107 -0.08904826 -0.9810091
-0.3502778 -0.07106975 -0.53104043 -0.09762044 -0.59346753 -0.64635766 -0.08012593 -0.79289067
-0.109543145 -0.29973206 0.55748624 -0.4350698 -1.3563305 -0.085696965 -0.9279323 -0.8859014
-0.44188744 -0.57781273 -0.060204066 0.194519 -0.09983801 -0.94335157 -0.026882008 0.2420989
-0.04467016 -0.81411445 -0.058879126 0.4807183 -0.35014963 -0.052893717 -0.8547363 -0.19144121
-0.7846359 -0.95619917 -0.771203 -0.05356901 -0.9904482 0.6925287 -0.16489461 -0.380161
-0.85235184 0.94479597 0.24949178 -0.03193287 -0.083571486 0.51501244 -0.046819568 -0.05837844
-0.34716114 -0.57555676 -0.9116685 -0.05622868 0.096080005 -0.0873361 -0.07364706 0.44818252
-0.2164803 1.3849996 -0.24440853 -0.08939103 -0.45007914 -0.053787984 -0.03373101 -0.07166525
-0.51555157 -0.49511793 -0.66404927 -1.1706774 -0.057097826 -0.06198181 0.015911268 -0.38250554
-0.79752594 -0.86970174 -0.07647397 -0.4245461
00000000: 25f5 c9be cac9 abbe 1301 2abc 09bc 36bd
00000010: 3551 34bf 78ae 30bd 9a25 54be b90f d4bd
00000020: 744d adbd 2703 3abf 96cd eabc a86d 0cbe
00000030: 08a7 17bd 0ff3 a3be 0b47 78bd cdfd 85bd
00000040: 4370 093d d841 0dbe fb35 93bd 732f 5bbf
00000050: 8c58 abbd 5775 25bd ef5e b6bd 6a23 7bbf
00000060: 9d57 b3be 048d 91bd 44f2 07bf 3aed c7bd
00000070: 7ded 17bf b277 25bf 1019 a4bd e2fa 4abf
00000080: 2858 e0bd 7b76 99be 6bb7 0e3f 78c1 debe
00000090: 3d9c adbf e481 afbd f98c 6dbf 6fca 62bf
000000a0: 123f e2be 89eb 13bf 8a98 76bd fd2f 473e
000000b0: df77 ccbd 7d7f 71bf a837 dcbc c6e8 773e
000000c0: 0ff8 36bd ce69 50bf 3d2b 71bd b620 f63e
000000d0: d046 b3be 15a7 58bd 00d0 5abf 2a09 44be
000000e0: e6dd 48bf 78c9 74bf 8f6d 45bf 2e6b 5bbd
000000f0: 038e 7dbf 9049 313f 22da 28be 76a4 c2be
00000100: bb33 5abf 26de 713f c67a 7f3e 0bcc 02bd
00000110: 8727 abbd dbd7 033f e0c5 3fbd 3b1e 6fbd
00000120: 1bbf b1be b057 13bf 1b63 69bf 0b50 66bd
00000130: 98c5 c43d 45dd b2bd 45d4 96bd 2e78 e53e
00000140: 03ad 5dbe ab47 b13f 3b46 7abe a512 b7bd
00000150: c670 e6be ca50 5cbd 8729 0abd 3bc5 92bd
00000160: 30fb 03bf 1980 fdbe 22ff 29bf c2d8 95bf
00000170: 69df 69bd a3e0 7dbd 5958 823c c4d7 c3be
00000180: a92a 4cbf c6a4 5ebf 639e 9cbd 1b5e d9be

fc2.weight f4 [10, 100]
-0.11295518 -0.08190396 -0.11496809 -0.094912864 -0.09993899 -0.08578083 -0.004544479 0.09419536
-0.12926196 -0.023085702 0.10980543 -0.2660338 -0.064820416 -0.4676737 -0.09144767 0.039729077
-0.33606687 -0.30786183 -0.094645396 0.20864949 -0.065543294 -0.13372934 -0.07966587 -0.22821218
-0.40875763 -0.012894073 0.20337756 0.48337144 -0.38479525 0.2936791 -0.1243796 -0.2096082
-0.038207807 -0.25208887 -1.4369493 0.05246361 -0.50083184 -0.11135183 -0.80352056 0.08254992
0.31588218 -1.0030669 0.013266877 -0.21586646 -0.09834876 0.6056359 -0.009534973 -0.68323886
-0.0019221324 -1.240257 0.03444749 -1.0561866 -0.1290759 0.031602792 -0.78961164 -0.052129805
-0.028609913 -0.036731042 -0.48449242 0.049298286 -0.18788396 -0.8570099 0.3849608 -0.6366619
-0.60198677 -0.19348279 -0.35856003 -0.1430089 0.1475311 -0.33095628 -0.08142817 -0.079832226
-0.25764498 0.24716125 -0.17422956 -0.06487097 0.3389478 0.038348775 -0.10864403 0.36068386
0.053558286 0.749885 -0.54532295 -0.034754347 0.118379064 0.034122813 -0.10807109 0.037800867
-0.5999323 -0.6438859 0.2662028 -0.13822608 -0.004994368 0.026719453 -0.31206244 -0.068401024
-0.68953055 -0.83750445 0.15083493 0.09056219 0.1524171 -0.21837494 -0.11109974 -0.09281261
0.11630578 -0.03095895 0.20065372 -0.09264831 -0.08728729 -0.2759185 -0.0016435883 -0.6844463
-0.028936608 -0.038619466 -0.0021488236 0.0365551 0.3970203 -0.29772246 0.0018129186 -0.18527694
-0.09867101 -0.08316481 -0.09915553 -0.4863996 -0.08551246 0.021474967 -0.8838336 -0.16347556
-0.63134104 -0.26937762 -0.13344404 -0.09900231 0.0028991469 0.06654881 0.6799905 0.17117712
-0.35172337 -0.047646344 0.32681668 -0.70217204 -0.66923517 -0.24168447 -0.033397675 -0.42875564
-0.03440215 -0.47047567 -0.06569969 -0.15523773 -0.010224905 -0.38996118 0.1394093 0.63071924
0.051070377 0.008684926 0.043831043 -0.10518948 -0.49360144 -0.2944401 -0.39139694 -0.028696459
-0.33036235 0.2451819 -0.4480196 -0.24919659 -0.45542803 -0.14220574 0.50468516 -0.14487158
-0.07780394 0.17701924 -0.10509439 0.024711113 0.23309736 -0.1431872 -0.43677083 0.023421573
0.2281331 -0.030469675 -0.13589363 -0.7704645 0.17077617 0.39338103 -0.038767874 -0.053653605
-0.6918182 0.07123172 0.050388332 0.07320847 0.019239254 -0.29002145 0.33011416 0.40721172
0.083508685 0.0047932556 -0.2511729 -0.26268536 -0.27917504 -0.35129836 0.022702336 -0.24514666
0.13079187 0.26333442 -0.3069279 -0.040505785 0.44726545 0.017988618 -0.36860776 -0.1531407
-0.1084117 0.31325215 -0.02538017 -0.091620535 -0.0083399415 -0.15646727 -0.019427486 0.05125788
-0.19880699 0.086500525 -0.1486074 0.10410487 -0.16975607 -0.013563273 0.011407236 -0.46555337
0.18306132 -0.059874337 -0.63007426 0.34611434 0.24419354 0.28261054 -0.016075682 -0.16559623
-0.08864445 -0.5437178 -0.3378263 -0.24964556 -0.5029451 0.033385903 -0.44510508 0.07446433
-0.5063519 -0.55834126 -0.052680023 0.034895234 0.033103228 -0.26254848 -0.12824368 0.0050281845
0.011792428 -0.25055432 -0.026626667 -0.8052052 -0.24100503 -0.06782738 0.21201304 -0.055807233
00000000: 0c55 e7bd 43bd a7bd 6474 ebbd ad61 c2bd
00000010: d0ac ccbd dcad afbd dae9 94bb 7fe9 c03d
00000020: 3f5d 04be 3a1e bdbc abe1 e03d 9535 88be
00000030: 91c0 84bd ed72 efbe ea48 bbbd f5ba 223d
00000040: f510 acbe 11a0 9dbe 72d5 c1bd 36a8 553e
00000050: 903b 86bd 58f0 08be dc27 a3bd 74b0 69be
00000060: ae48 d1be a941 53bc 3542 503e 767c f73e
00000070: e203 c5be 1b5d 963e bbba febd 88a3 56be
00000080: ca7f 1cbd cb11 81be f4ed b7bf 15e4 563d
00000090: 8436 00bf 6e0c e4bd 86b3 4dbf ef0f a93d
000000a0: 4fbb a13e 7f64 80bf 515d 593c 190c 5dbe
000000b0: 136b c9bd f40a 1b3f 9338 1cbc bee8 2ebf
000000c0: 10f0 fbba bec0 9ebf d018 0d3d 1f31 87bf
000000d0: 792c 04be ee71 013d fd23 4abf 1086 55bd
000000e0: 565f eabc 4a73 16bd 640f f8be 00ed 493d
000000f0: a764 40be 0065 5bbf 9519 c53e 46fc 22bf
00000100: ce1b 1abf 5a20 46be 2e95 b7be ed70 12be
00000110: 6512 173e 1a73 a9be d0c3 a6bd 147f a3bd
00000120: 0bea 83be d717 7d3e 3c69 32be 12db 84bd
00000130: 918a ad3e 9b13 1d3d c380 debd 8eab b83e
00000140: ef5f 5b3d 77f8 3f3f 499a 0bbf 935a 0ebd
00000150: b970 f23d 5dc4 0b3d 6054 ddbd 15d5 1a3d
00000160: 2a95 19bf b5d5 24bf bc4b 883e 238b 0dbe
00000170: cca7 a3bb c1e2 da3c a6c6 9fbe d615 8cbd
00000180: 1385 30bf b166 56bf 7974 1a3e ab78 b93d
00000190: 3a13 1c3e ae9d 5fbe 4388 e3bd 8a14 bebd
000001a0: ba31 ee3d a09d fdbc 2b78 4d3e 66be bdbd
000001b0: aec3 b2bd 3145 8dbe ac6d d7ba df37 2fbf
000001c0: 770c edbc 722f 1ebd 47d3 0cbb cdba 153d
000001d0: 3f46 cb3e 146f 98be 749f ed3a 3db9 3dbe
000001e0: 0714 cabd 5052 aabd 0e12 cbbd 5e09 f9be
000001f0: 2821 afbd 45ec af3c eb42 62bf 2366 27be
00000200: 919f 21bf ddeb 89be 8ea5 08be b9c1 cabd
00000210: 9dff 3d3b be4a 883d db13 2e3f 0e49 2f3e
00000220: 1615 b4be d028 43bd 8454 a73e 8cc1 33bf
00000230: ff52 2bbf 227c 77be 00cc 08bd dc85 dbbe
00000240: 45e9 0cbd 30e2 f0be 8f8d 86bd a4f6 1ebe
00000250: 5c86 27bc fea8 c7be 50c1 0e3e d176 213f
00000260: 2c2f 513d 384b 0e3c 2e88 333d 956d d7bd
00000270: 54b9 fcbe dac0 96be 2e65 c8be d614 ebbc
00000280: 4125 a9be f710 7b3e d362 e5be 642d 7fbe
00000290: dd2d e9be 629e 11be 0c33 013f 3759 14be
000002a0: ac57 9fbd 8844 353e ba3b d7bd f66e ca3c
000002b0: 13b1 6e3e aa9f 12be 6da0 dfbe 99de bf3c
000002c0: b99b 693e 8a9b f9bc b327 0bbe 293d 45bf
000002d0: f3df 2e3e 3d69 c93e 10cb 1ebd e2c3 5bbd
000002e0: ff1a 31bf f0e1 913d ff63 4e3d 53ee 953d
000002f0: a49b 9d3c b17d 94be b904 a93e 0e7e d03e
00000300: 9a06 ab3d be10 9d3b bc99 80be b27e 86be
00000310: 08f0 8ebe 61dd b3be 40fa b93c ba07 7bbe
00000320: 4eee 053e c5d3 863e a725 9dbe 65e9 25bd
00000330: faff e43e de5c 933c 28ba bcbe ead0 1cbe
00000340: f406 debd 9662 a03e 13ea cfbc 8ca3 bbbd
00000350: 40a4 08bc f538 20be 6426 9fbc c8f3 513d
00000360: 0f94 4bbe 3027 b13d 8a2c 18be ef34 d53d
00000370: 89d4 2dbe 7d38 5ebc 6ae5 3a3c 035d eebe
00000380: 6d74 3b3e cb3e 75bd 8c4c 21bf e635 b13e
00000390: df0d 7a3e 54b2 903e 26b1 83bc 0f92 29be
000003a0: 398b b5bd 1731 0bbf 92f7 acbe 16a3 7fbe
000003b0: 03c1 00bf a8bf 083d d0e4 e3be c180 983d
000003c0: 47a0 01bf 74ef 0ebf 02c7 57bd 4eee 0e3d
000003d0: 4097 073d c16c 86be 5052 03be 78c3 a43b
000003e0: 0735 413c a848 80be 2b20 dabc ee21 4ebf
000003f0: 06ca 76be 15e9 8abd f219 593e 2096 64bd

fc2.bias f4 [10]
-0.32602724 0.3592835 0.18201467 0.12255945 -0.18793386 -0.11867542 -0.5405609 -0.2277301
0.90523416 -0.23621888
00000000: 0bed a6be 02f4 b73e 0e62 3a3e 7300 fb3d
00000010: bc71 40be 190c f3bd 3362 0abf 1432 69be
00000020: 6dbd 673f 5de3 71be
