vae.pth (torch_old, 344925 bytes, 8 tensors)

conv1.weight f4 [16, 1, 3, 3]
0	0x3def5997	0.1168701
1	0x3e529c28	0.20567381
2	0xbe2acd30	-0.16679835
3	0xbe02a978	-0.1275996
4	0xbe52a47e	-0.20570561
5	0x3c9a2e21	0.018820824
6	0xbf2f0504	-0.6836703
7	0xbebf7bc6	-0.3739912
8	0xbe0c1a9f	-0.1368203
9	0xbe11e56a	-0.14247671
10	0xbe4b3d58	-0.1984762
11	0x3e303ca2	0.1721063
12	0x3e0f4800	0.1399231
13	0xbdeb5a58	-0.11491841
14	0xbe5ff4ac	-0.21870679
15	0xbe530cb3	-0.20610313
16	0x3e4e671f	0.20156525
17	0xbe30e23e	-0.17273805
18	0xbecfa60d	-0.40556374
19	0xbed19322	-0.40932566
20	0xbe9c31bd	-0.30506697
21	0xbd2264aa	-0.039646782
22	0xbe7c48ea	-0.2463719
23	0x3e17ea2f	0.14835428
24	0x3d014213	0.031557154
25	0x3c5b5c04	0.013388637
26	0xbe62099f	-0.22073983
27	0xbce7597d	-0.028240914
28	0xbf8c7ef3	-1.0976242
29	0x3e3234d3	0.17402963
30	0x3f18a579	0.5962749
31	0xbff9ab8c	-1.9505477
32	0x3f2964f5	0.66169673
33	0x3f887792	1.066149
34	0x3f011f20	0.5043812
35	0x3f69f4bc	0.9138906
36	0xbedce664	-0.43144524
37	0xbefe88a4	-0.49713624
38	0xbe8ab1f6	-0.27088898
39	0xbf166f1e	-0.587633
40	0xbe996063	-0.2995635
41	0xbfcfdfa4	-1.6240125
42	0xbf3fb3fc	-0.7488401
43	0x3f2f163c	0.683933
44	0xbf5431ab	-0.8288829
45	0x3fb4a0f3	1.4111618
46	0xbe44dbe0	-0.192245
47	0xbf86ecb9	-1.0540992
48	0x3da03765	0.07823066
49	0xbfbf968f	-1.4967822
50	0xbfbc310b	-1.4702467
51	0xbf7ffa01	-0.9999085
52	0xc005dc31	-2.0915644
53	0xbf1f40a9	-0.6220804
54	0x3e264f6a	0.16241232
55	0xbe6a87fe	-0.2290344
56	0xbe1de0e6	-0.15417823
57	0xbe9c0fc6	-0.30480784
58	0x3d1cd540	0.03828931
59	0x3da335d4	0.07969251
60	0xbdd865b6	-0.10566275
61	0xbde94426	-0.113899514
62	0xbe724470	-0.2365892
63	0xc09d82d7	-4.9222217
64	0xbec564f8	-0.38553596
65	0x3e33d49c	0.17561573
66	0xbf89a848	-1.075448
67	0xbfbcdbef	-1.4754618
68	0xc00dc248	-2.214983
69	0xc008bf33	-2.1366699
70	0xbfec7704	-1.8473821
71	0xbedeed35	-0.4354035
72	0xbeb853f8	-0.36001563
73	0xbe8f983d	-0.28045836
74	0xbf65c99c	-0.89760756
75	0xbf53e5d8	-0.8277259
76	0xbe865bf8	-0.26242042
77	0xbd9c7189	-0.076388426
78	0xbedb74ed	-0.42862645
79	0x3e88fcdc	0.26755416
80	0x3ce97792	0.028499398
81	0xbe9dc654	-0.30815375
82	0xbd929cdc	-0.07158825
83	0x3d971bca	0.07378347
84	0xbe906a4d	-0.282061
85	0x3c2b3adb	0.010451044
86	0x3b720c8e	0.0036933753
87	0x3e71c2fc	0.23609537
88	0x3e473290	0.19452882
89	0xbd43c30f	-0.047793444
90	0xbf63f5f1	-0.8904715
91	0x3f4cf294	0.80057645
92	0xbfe7a4f4	-1.8097215
93	0xbfa5ce39	-1.2953559
94	0xc08c2cc9	-4.380467
95	0xbf07c5c8	-0.53036165
96	0xbfe488dd	-1.7854267
97	0x3e16d79f	0.1473069
98	0x3f98fc8d	1.1952072
99	0x3f2c2783	0.6724779
100	0xbed9dc07	-0.4255068
101	0xbf1e0181	-0.61721045
102	0x3eaa1ac6	0.33223552
103	0xbf8ca232	-1.0986998
104	0xbf8fc862	-1.1233027
105	0x3e1d1dd9	0.15343417
106	0xbf65cfee	-0.897704
107	0xbda7e041	-0.0819707
108	0xbc68b8a2	-0.014204176
109	0xbf4cfdeb	-0.8007495
110	0xbfb93785	-1.4470068
111	0xbc80cd8d	-0.015723014
112	0xbf1d9c0b	-0.6156623
113	0xbf0ac963	-0.5421354
114	0xbf497a32	-0.7870208
115	0xbf052f10	-0.52024937
116	0x3d24d7f8	0.040245026
117	0x3df780ee	0.12085138
118	0x3f0c9e1d	0.5492876
119	0x3f4d0f5f	0.8010158
120	0xbe63a76f	-0.2223184
121	0x3e1e7868	0.15475619
122	0xbef8f2cf	-0.48622748
123	0xbf8d91e5	-1.1060148
124	0xbff2ae46	-1.8959434
125	0xbf792e2d	-0.97336084
126	0xbf2a0291	-0.66410166
127	0xbf670237	-0.90237755
128	0xbf72f642	-0.9490701
129	0x3d5ba08f	0.053619917
130	0x3eeddb80	0.46456528
131	0xbd6e8366	-0.05823078
132	0xbf5049e4	-0.8136275
133	0xbf64b3d9	-0.89336926
134	0xbed6e90a	-0.4197467
135	0xbdff74f0	-0.12473476
136	0xbf1405b1	-0.57821184
137	0xbed4b064	-0.41540825
138	0x3dd3c955	0.103411354
139	0x3e61262a	0.21987215
140	0xbf480646	-0.7813457
141	0xbf1eb532	-0.6199523
142	0x3ecf3dbe	0.40476793
143	0xbeb0f28d	-0.34560052

conv1.bias f4 [16]
0	0xbebd3f5d	-0.36962405
1	0xbea7c1ef	-0.32765147
2	0xbef069ce	-0.46955723
3	0xbfcfc99d	-1.6233402
4	0xbf5f2f90	-0.8718195
5	0xbe974ac8	-0.2954924
6	0xbea71bd4	-0.3263842
7	0x3ea25249	0.31703404
8	0xbea56f32	-0.32311398
9	0xbf08ca48	-0.53433657
10	0xbe90bade	-0.28267568
11	0xbf94a214	-1.1611962
12	0xbd2ea3c9	-0.042636666
13	0xbe34d121	-0.17657901
14	0xbf0a4b2e	-0.54020965
15	0xbf31d07f	-0.69458765

conv2.weight f4 [32, 16, 3, 3]
0	0xbd7b8b3c	-0.06141208
1	0xbe0fa28f	-0.14026855
2	0x3ca9b8a5	0.020717928
3	0xbb359f43	-0.0027713336
4	0xbdf19272	-0.1179551
5	0xbd8ee7d0	-0.069778085
6	0xbdde9642	-0.10868503
7	0xbe199e07	-0.15001689
8	0xbd87138d	-0.06595526
9	0xbc4102fc	-0.011780497
10	0x3da2d705	0.07951168
11	0xbc996f5b	-0.018729856
12	0xbcc9126c	-0.024544917
13	0x3d90f612	0.07078184
14	0x3e02912b	0.1275069
15	0xbcbc2b06	-0.022969734
16	0x3cab1b06	0.02088691
17	0xbdc43235	-0.09579889
18	0xbd52134a	-0.051287927
19	0xbc6e6771	-0.01455103
20	0xbd1f071a	-0.038825132
21	0xbd83f225	-0.0644267
22	0xbe0236bb	-0.1271619
23	0xbc5a5674	-0.013326276
24	0xbdd22897	-0.10261648
25	0xbd2e03c5	-0.042484064
26	0x3c46f36e	0.012142999
27	0xbd3a5fa5	-0.04550137
28	0xbc1aaa81	-0.009440065
29	0xbdf3d708	-0.11906248
30	0xbe0de15c	-0.13855499
31	0xbcb7689b	-0.022388747
32	0xbbbeca9f	-0.005822494
33	0xbe197fbb	-0.14990132
34	0xbd9fd670	-0.078045726
35	0xbd886b3e	-0.0666108
36	0xbdb962b1	-0.09052027
37	0x39b0e1e6	0.00033737643
38	0xbd09402c	-0.033508465
39	0xbdbf8ccc	-0.09353027
40	0xbda22f75	-0.07919208
41	0xbdb1208b	-0.08648785
42	0xbd8abf61	-0.06774784
43	0xbe06f5a1	-0.13179637
44	0xbd9bc498	-0.07605857
45	0x3c7fa6a6	0.015603697
46	0xbdbcca56	-0.0921828
47	0xbde4b97c	-0.11168191
48	0xbe1a7b77	-0.1508616
49	0xbe1fae8d	-0.1559393
50	0xbd8f8dd4	-0.070094734
51	0xbd05e0c3	-0.032685053
52	0xbd318bf7	-0.04334637
53	0xbd82b1c0	-0.06381559
54	0xbd7e4ffb	-0.062087994
55	0x3d27cfd2	0.040969677
56	0x3cdc07a4	0.026859112
57	0xbbf87140	-0.00758186
58	0x3b754da0	0.0037430301
59	0x3d646e92	0.05576951
60	0x3be61c30	0.007022403
61	0xbcf5e72c	-0.030017458
62	0x3bfdc750	0.007744707
63	0xbdf10a7f	-0.1176958
64	0xbdd541de	-0.10412954
65	0xbc3ac870	-0.011400327
66	0xbe0cffe3	-0.13769488
67	0x3c2676d7	0.01016017
68	0xbdde586e	-0.108567104
69	0xbc3315f7	-0.01093053
70	0xbd9dba8f	-0.07701599
71	0xbb506fea	-0.0031804987
72	0xbd293a4f	-0.041315373
73	0xbd8755c5	-0.06608156
74	0xbcc6b732	-0.024257276
75	0xbbdf6dfe	-0.006818532
76	0xbe1c8fd4	-0.15289241
77	0xbce67d4a	-0.028135914
78	0xbd356311	-0.04428393
79	0xbcfb06d6	-0.030642908
80	0xbc8fe0a4	-0.017563172
81	0xbcf358c5	-0.029705415
82	0xbb1b3c5c	-0.00236871
83	0xbd1c44a3	-0.038151395
84	0xbda9b7de	-0.08287023
85	0xbc9ca8a1	-0.019123377
86	0xbd43dfc1	-0.04782081
87	0xbc389970	-0.011267051
88	0x3c820b0d	0.01587441
89	0x3c6e263e	0.014535485
90	0xbe0b28ff	-0.13589858
91	0x3c370301	0.01117015
92	0xbcf582c3	-0.029969579
93	0xbd948705	-0.072523154
94	0xbddc8e84	-0.1076937
95	0xbdb1f094	-0.08688465
96	0xbe046ca0	-0.12932062
97	0xbd8d7b93	-0.069083355
98	0xbc3e0700	-0.011598349
99	0x3cdc8593	0.026919162
100	0xbd4be455	-0.0497783
101	0xbe129d69	-0.1431786
102	0x3d091754	0.033469513
103	0xbcf07ec3	-0.02935732
104	0xbd91d40c	-0.07120523
105	0xbdeeeb4d	-0.11665974
106	0xbda3153c	-0.079630345
107	0xbd2f7a19	-0.04284105
108	0x3b2da0b1	0.0026493485
109	0xbd88c3d2	-0.06677975
110	0xbd10951c	-0.03529845
111	0xbdc20707	-0.094739966
112	0x3b3294e2	0.0027249386
113	0xbd11d91b	-0.03560744
114	0xbd4055ad	-0.046956707
115	0xbdfb2e05	-0.12264637
116	0xbc21fafe	-0.009886501
117	0xbd0f0dfd	-0.03492545
118	0xbc4e7207	-0.012600428
119	0xbc0b40ca	-0.008499334
120	0x3b928666	0.004471588
121	0xbd9b0769	-0.07569773
122	0xbe0486e3	-0.1294208
123	0xbd2be942	-0.0419705
124	0xbccb4fa7	-0.024818255
125	0xbd28f9d6	-0.041253887
126	0xbd45f74f	-0.048331555
127	0xbd666f34	-0.056258395
128	0xbd78a5cd	-0.060704995
129	0xbe034d61	-0.12822486
130	0xbd8c6460	-0.068550825
131	0xbd90760e	-0.07053767
132	0x3c1122ad	0.008858365
133	0xbd13bf5a	-0.03607116
134	0xbce5a60f	-0.028033284
135	0xbc8512fd	-0.016244406
136	0xbe14aedd	-0.1451983
137	0xbd968863	-0.073502325
138	0xbc74f6f4	-0.014951456
139	0xbd03e781	-0.0322032
140	0xbd19e6f1	-0.03757376
141	0xbd8c36a1	-0.06846357
142	0xbd61efd7	-0.05516037
143	0x3c26027c	0.010132428
144	0xbe8c2722	-0.27373606
145	0xbe3275e0	-0.17427778
146	0x3dfe8c5d	0.12429116
147	0xbedf997f	-0.43671796
148	0xbe18b532	-0.1491287
149	0xbe5cc273	-0.21558551
150	0x3da57d23	0.080805086
151	0x3db9c9f2	0.09071721
152	0x3db3c7e1	0.08778358
153	0x3d286578	0.041112393
154	0x3d7f12fa	0.062273957
155	0x3d27c6aa	0.040960945
156	0xbda5a072	-0.08087243
157	0xbd51d6ee	-0.051230364
158	0x3c95ffbc	0.01831042
159	0x3c4a3ea0	0.0123440325
160	0x3db27a01	0.08714677
161	0xbc820800	-0.015872955
162	0xbeedd3c6	-0.46450633
163	0xbf21c323	-0.6318838
164	0xbf05c207	-0.5224919
165	0x3e119e0d	0.14220448
166	0xbdb0c6f1	-0.08631695
167	0xbe26b52e	-0.16280052
168	0x3e8769e9	0.2644799
169	0x3d6502ff	0.05591106
170	0x3eca26d9	0.39482763
171	0xc0547825	-3.319833
172	0xc112e0c2	-9.1798725
173	0xc0c40a74	-6.126276
174	0x3f4926da	0.7857491
175	0x3f66bb91	0.90129954
176	0xbf85721e	-1.0425451
177	0xbba4ec40	-0.005033046
178	0x3ed3128a	0.41225082
179	0x3edb4367	0.4282486
180	0xbf42b46e	-0.76056564
181	0xbe51c1a9	-0.20484032
182	0xbebf4054	-0.37353766
183	0x3ea1f7f8	0.31634498
184	0x3e42c534	0.1902054
185	0xbf0b98d5	-0.5453008
186	0x3e7c5f02	0.24645618
187	0xbea7fbc1	-0.3280926
188	0xbd7011b1	-0.05861062
189	0x3e962456	0.29324597
190	0xbfd20cfc	-1.6410213
191	0xc000f11e	-2.0147166
192	0xbfff9f27	-1.9970444
193	0xc035e733	-2.8422363
194	0xbf0b63b2	-0.54449
195	0xbfe98856	-1.8244731
196	0xc0106bdd	-2.2565835
197	0xc05ab3ea	-3.417231
198	0xbc414058	-0.011795126
199	0xbbefa1f0	-0.0073130056
200	0x3c8ff140	0.017571092
201	0xbd896430	-0.067085624
202	0xbd881127	-0.066438965
203	0xb9565000	-0.00020438433
204	0xbcda9306	-0.026681434
205	0xbd0f829b	-0.035036664
206	0x3c8d48ec	0.017246686
207	0x408334c9	4.1001935
208	0x3feb3899	1.8376647
209	0x3edc2112	0.4299398
210	0xbfd2c686	-1.6466835
211	0x3fddb24e	1.7320039
212	0xbc4114c3	-0.011784735
213	0xc09cb146	-4.89664
214	0xbfee994d	-1.8640534
215	0xc01a82e6	-2.4142394
216	0xbe19a9c3	-0.15006165
217	0xbe76ef6b	-0.24114768
218	0xbec90b46	-0.39266413
219	0x3ea5d2c1	0.32387355
220	0xbc0badd4	-0.008525331
221	0xbea90066	-0.33008116
222	0x3e58113b	0.21100323
223	0x3d34378f	0.043998297
224	0x3e10dcf6	0.1414679
225	0xbf64a7bf	-0.8931846
226	0xbf35896e	-0.70912826
227	0xbead6459	-0.33865622
228	0x3e803c8f	0.25046203
229	0xbde884c2	-0.113534465
230	0xbe58400d	-0.21118183
231	0x3e91b00d	0.2845463
232	0x3e4a20c1	0.19739057
233	0x3e89b377	0.26894733
234	0xc08ce86c	-4.403372
235	0xc0c2ccf3	-6.087518
236	0xc0e8c6c7	-7.274265
237	0x40303934	2.7534914
238	0xbf91897d	-1.1370083
239	0xbff8fd2f	-1.9452266
240	0x3fa0a16f	1.2549266
241	0x3f93461e	1.1505773
242	0xbda7d45e	-0.08194803
243	0xc02fbb89	-2.7458212
244	0xc043714c	-3.05379
245	0xbf3e9301	-0.7444306
246	0xc00003cc	-2.0002317
247	0xc084ece8	-4.153919
248	0xbfd9682d	-1.6984917
249	0x3f656602	0.89608777
250	0xbc99925b	-0.018746546
251	0xbfa5daf6	-1.2957447
252	0x3ec6f077	0.38855335
253	0x3e36250f	0.17787574
254	0xbe8128bf	-0.252264
255	0xbe60417e	-0.21899983

conv2.bias f4 [32]
0	0xbdd1d569	-0.10245783
1	0xbe1bd64c	-0.15218467
2	0xbdf4162f	-0.11918294
3	0xbe366191	-0.17810656
4	0x3f6fe18c	0.9370353
5	0xbe7e2ffc	-0.24822992
6	0xbec1ed02	-0.37876135
7	0x3faa446b	1.330213
8	0xbf03e263	-0.51517314
9	0xbf5c061c	-0.8594682
10	0xbeefbd9e	-0.46824354
11	0xbe239427	-0.15974484
12	0x3f012e50	0.5046129
13	0xc00803a3	-2.125222
14	0xbd69cc69	-0.057079706
15	0xbea232d8	-0.31679416
16	0xbeb038e8	-0.34418416
17	0x3e0453a7	0.12922536
18	0x3e0e7430	0.1391151
19	0xbdb01d46	-0.085993335
20	0xbe9685a3	-0.29398832
21	0xbf854550	-1.0411777
22	0xbd8f83e5	-0.07007579
23	0xbe3c22f7	-0.18372713
24	0xbf636003	-0.8881838
25	0xbebea019	-0.3723152
26	0xbd885f02	-0.06658746
27	0xbf22da41	-0.6361428
28	0xbdb5eb27	-0.088827424
29	0xbdbbd4fa	-0.091714814
30	0xbdd013f3	-0.10160055
31	0xbf27d974	-0.6556618

fc1.weight f4 [100, 800]
0	0x3d8e0aa3	0.069356225
1	0x3d0869be	0.03330397
2	0x3cf9fa0b	0.030514738
3	0xbdf381ce	-0.11889993
4	0xbdc43a82	-0.09581472
5	0xbcba5814	-0.022747077
6	0x3ad2e049	0.0016088571
7	0x3ce4222a	0.027848322
8	0xbd4b8920	-0.04969132
9	0xbdaf51ed	-0.08560548
10	0xbd68e66c	-0.056860372
11	0x3b0b0adb	0.0021216187
12	0xbd9d7443	-0.07688191
13	0x3d4094e9	0.04701701
14	0xbd7f301a	-0.062301733
15	0x3d2a5ecd	0.041594315
16	0x3b30881f	0.0026936603
17	0xbc85e335	-0.016343692
18	0x3dcff1ea	0.10153563
19	0x3d8b55f6	0.06803505
20	0x3dadd3f6	0.08487694
21	0xbd6d2170	-0.057893217
22	0xbd4f5ed4	-0.050627545
23	0x3d420e1a	0.04737673
24	0x3d02472f	0.031806167
25	0xc019b181	-2.401459
26	0xc0be72af	-5.9514995
27	0xc0940468	-4.625538
28	0xc064fe56	-3.5780234
29	0xc00ed498	-2.2317257
30	0x405f913a	3.493239
31	0xbfa12f57	-1.2592572
32	0xbf7b8672	-0.9825202
33	0xbe87caa0	-0.26521778
34	0xbef497e9	-0.47772148
35	0x404132ec	3.018733
36	0x40883f6c	4.257742
37	0x3ed8b38a	0.42324477
38	0x40505fa6	3.255838
39	0x3e0ba95f	0.13638829
40	0x407206a3	3.781655
41	0x40379cd1	2.8689463
42	0xbf3debd4	-0.7418797
43	0xbfe5966a	-1.7936528
44	0xc07293ff	-3.790283
45	0x3f8fcb04	1.123383
46	0x4004ffdf	2.0781171
47	0xbfe993aa	-1.8248188
48	0xc06b72dd	-3.6788857
49	0xc02c3c45	-2.6911786
50	0x3b935860	0.004496619
51	0xbcf9f7fc	-0.030513756
52	0x3a585440	0.00082523003
53	0xbd0f9878	-0.035057515
54	0x3cfafb1a	0.030637313
55	0x3cc68b04	0.02423621
56	0xbd08ffc7	-0.033447053
57	0xbb9da6d4	-0.004811147
58	0xbcfa5d56	-0.030562084
59	0xbc5bc52e	-0.0134137105
60	0xbc9e7cfa	-0.019346703
61	0x3db63a57	0.08897846
62	0x3ad22760	0.0016033463
63	0x3c972fc0	0.018455386
64	0x3cf134ba	0.029444087
65	0xbba7b980	-0.005118549
66	0x3cfa4f5e	0.030555423
67	0xbd0017e6	-0.03127279
68	0xbca11341	-0.019662501
69	0xbd077c42	-0.033077486
70	0x3c95ed50	0.018301636
71	0x3cf22f1a	0.029563475
72	0x391a9f00	0.00014745817
73	0x3c5c97b4	0.013463903
74	0xbcac78cd	-0.021053696
75	0x3d4369be	0.047708265
76	0x3dd24661	0.1026733
77	0x3dd534af	0.10410439
78	0x3d925b12	0.071462765
79	0x3de423ae	0.11139618
80	0xbc68e3b0	-0.014214441
81	0xbd0775c8	-0.03307131
82	0xbd92ee7e	-0.07174395
83	0xbd654243	-0.055971395
84	0xbced8fcc	-0.028999232
85	0xbd0c3ef7	-0.034239735
86	0xbceecbdc	-0.029149942
87	0x3dcaf474	0.09909907
88	0x3c91b017	0.017784161
89	0xbcd8048f	-0.026369361
90	0xbd87a8b3	-0.06623974
91	0x3d18e6a6	0.03732934
92	0xbd8f576d	-0.06999097
93	0x3cd3b4eb	0.025843104
94	0x3d678740	0.05652547
95	0x3d565834	0.05233021
96	0x3dcfe656	0.10151355
97	0x3dd70931	0.104998
98	0x3e026f6b	0.12737815
99	0x3dd73909	0.105089255
100	0x3e6cac48	0.23112595
101	0x3f17e660	0.593359
102	0xbf384252	-0.71976197
103	0xc007c757	-2.1215417
104	0x3d9a3320	0.075292826
105	0x3fcac1da	1.5840409
106	0x4023768b	2.5541103
107	0x410b38ec	8.701397
108	0x405813b4	3.3762026
109	0xc003d0db	-2.0596225
110	0x3edb8f7b	0.42882904
111	0xbf84815e	-1.035198
112	0xc00985c8	-2.1487904
113	0x40164d9d	2.3484871
114	0x3fbdacf4	1.4818406
115	0x3f7a1c7e	0.97699726
116	0x4072f8f7	3.7964456
117	0x3fc04e60	1.5023918
118	0x4080554e	4.010413
119	0x3ef35252	0.47523743
120	0xbfff065e	-1.9923818
121	0x403fb325	2.995309
122	0x3eea98e5	0.45819774
123	0x3ffe183f	1.9851149
124	0x3e86c7fe	0.26324457
125	0xbda852cf	-0.082189195
126	0xbdcd782e	-0.10032688
127	0xbd422407	-0.04739764
128	0xbd31d46f	-0.043415483
129	0xbdec3921	-0.11534334
130	0x3d9276a1	0.07151533
131	0x3d34356b	0.043996256
132	0xbdcfc2e4	-0.10144594
133	0x3d732702	0.059363373
134	0xbc714917	-0.014726899
135	0xbdc2862e	-0.09498249
136	0x3ddd0133	0.10791244
137	0x3cca298c	0.024678014
138	0x3daaff70	0.08349502
139	0x3dafc4ed	0.085824825
140	0x3cb9de08	0.02268888
141	0x3d45b5ce	0.048269086
142	0x3dd8bcb1	0.10582865
143	0xbd9bf740	-0.076155186
144	0xbccac70f	-0.024753122
145	0x3e2e4b36	0.17020878
146	0x3e071d83	0.13194852
147	0xbd9bc58d	-0.07606039
148	0xbd736e6a	-0.05943147
149	0xbdcdefae	-0.10055481
150	0xbb927a94	-0.004470179
151	0xba814720	-0.0009863116
152	0x3cb0f7b2	0.021602485
153	0x3cb2ca98	0.02182512
154	0xbc194830	-0.00935559
155	0xbd083fa5	-0.03326382
156	0xbcb47696	-0.022029202
157	0x3be054e8	0.006846059
158	0xbbe89af4	-0.00709855
159	0xbc80ac8b	-0.015707275
160	0x3c47959c	0.012181666
161	0xbc02eeaa	-0.007991472
162	0xbd032363	-0.03201617
163	0x3ca3cb3e	0.019994374
164	0xbcb2241c	-0.021745734
165	0xbc78e1ee	-0.015190585
166	0x3ca9a8fa	0.020710457
167	0xbc09f512	-0.008420246
168	0xbc93f4f9	-0.018061148
169	0x3dbb1ab8	0.091359556
170	0xbc4a0908	-0.012331255
171	0x3d33906c	0.043838903
172	0xbda3694a	-0.07979067
173	0x3cf01a6d	0.029309476
174	0x3cba7dd0	0.02276507
175	0x3f6a874f	0.91612715
176	0x3dc1d621	0.0946467
177	0x3f959dc5	1.1688772
178	0x3cb67aec	0.02227541
179	0xc0c5e08f	-6.183662
180	0x3f587d8d	0.84566575
181	0x3fed8c83	1.8558506
182	0x400076ce	2.0072513
183	0xc0c66c8b	-6.20075
184	0xc1212509	-10.071542
185	0x40116660	2.2718735
186	0xc09f2064	-4.972704
187	0xbf85345f	-1.0406607
188	0x4086940e	4.205573
189	0xbec909ed	-0.39265385
190	0x4036c57e	2.855804
191	0xc08fb9a9	-4.4914136
192	0xc08f3a1d	-4.475844
193	0xbfbe1628	-1.4850512
194	0xbf84a35a	-1.0362351
195	0x3e741e55	0.23839696
196	0x408d5ca4	4.4175587
197	0xc02bbd5f	-2.6834333
198	0xbfd7d734	-1.686255
199	0xbed7ff0e	-0.4218678
200	0x3d060d4d	0.03272753
201	0xbdb127d7	-0.08650177
202	0x3d4e1786	0.050315402
203	0xbd55c50f	-0.052189883
204	0xbdb94b5f	-0.09047579
205	0x3b703150	0.0036650486
206	0xbd224ab3	-0.03962202
207	0x3d8925c4	0.06696656
208	0xbda3fbb4	-0.08006993
209	0xbd71f0d6	-0.05906757
210	0xbbcfa7f0	-0.0063371584
211	0xbd7e3cf7	-0.06206986
212	0x3d95d162	0.07315327
213	0x3d88ac17	0.066734485
214	0xbd9838d2	-0.074327126
215	0x3db0ddf3	0.086360835
216	0x3cd498e4	0.02595181
217	0x3d5c6e44	0.053816095
218	0xbd11daa7	-0.035608914
219	0x3d423b99	0.047420118
220	0x3cdf74d2	0.027277384
221	0xbd468671	-0.048468057
222	0xbd81b935	-0.063341536
223	0xbcce9a9c	-0.025220208
224	0x3d86dcdb	0.065850936
225	0x3cbb4997	0.022862239
226	0x3f027710	0.50962925
227	0x3f4b40b7	0.7939562
228	0x3ea32a4b	0.31868204
229	0x3eece38b	0.46267352
230	0x3e577671	0.21041276
231	0x3f1b00c6	0.60548055
232	0x3f0ece2b	0.5578334
233	0x3f1311e8	0.574492
234	0x3ef49e7a	0.47777158
235	0x3ea488ec	0.32135713
236	0xbd1b2029	-0.037872467
237	0x3f812b03	1.0091251
238	0x3fb255cc	1.3932433
239	0x3ed7e235	0.4216477
240	0x3f0ed5ad	0.55794793
241	0x3e5acb93	0.2136672
242	0xbe36cd9c	-0.17851871
243	0x3dc0b020	0.09408593
244	0x3ecd8075	0.40137067
245	0x3f45d271	0.77274233
246	0x3f683a37	0.9071383
247	0x3f353ed8	0.70799017
248	0x3f7a1270	0.97684383
249	0x3e21658d	0.15761395
250	0x3ed90a02	0.42390448
251	0x3ecd4101	0.40088657
252	0x3ed450fc	0.41468036
253	0x3f093338	0.5359378
254	0x3f24f3e3	0.6443464
255	0x3ef62549	0.4807532

fc1.bias f4 [100]
0	0xc0d86401	-6.7622075
1	0xbdb28d90	-0.08718407
2	0xc0b36750	-5.6063614
3	0xc0853541	-4.1627507
4	0xbcf40ac1	-0.029790284
5	0xc06ff5d4	-3.7493792
6	0xc11aa862	-9.666109
7	0xbe371c31	-0.17881848
8	0xc11a4941	-9.642884
9	0xc08c75bd	-4.3893723
10	0xbcd49de6	-0.025954198
11	0xc1125b9d	-9.147367
12	0xc091e221	-4.5588536
13	0xc0e29787	-7.080997
14	0xbdb8af51	-0.09017814
15	0xc041d5df	-3.0286787
16	0xbd4dedce	-0.050275616
17	0xc0988c2e	-4.767112
18	0xbfd4a474	-1.6612687
19	0xbfeb3405	-1.837525
20	0xbea0046e	-0.3125338
21	0xc0835105	-4.10364
22	0xbd8fcc24	-0.070213586
23	0xbd7cb30a	-0.061694182
24	0xc068d415	-3.6379445
25	0xbda9aa55	-0.082844414
26	0xc08a65b2	-4.324914
27	0x3e728522	0.23683599
28	0xc0ad43e2	-5.4145365
29	0xc08ad392	-4.3383265
30	0xbdc26303	-0.09491541
31	0xbea6658d	-0.32499352
32	0xc10a7648	-8.653877
33	0xbd36c518	-0.044621557
34	0xbfa58210	-1.2930317
35	0xc0438404	-3.0549326
36	0xc0e0d142	-7.025544
37	0xbdaa138f	-0.08304512
38	0xbe139192	-0.14411
39	0xc0845142	-4.134919
40	0xc0ca6af0	-6.325554
41	0xc0a483cc	-5.1410885
42	0xc0a4109b	-5.127027
43	0xbe9e2560	-0.3088789
44	0xc0cd64a0	-6.4185333
45	0xc0927904	-4.5772724
46	0xc0ca4df3	-6.3220153
47	0xc058c4d3	-3.3870132
48	0xbf1a211b	-0.60206765
49	0xc00e615c	-2.2246923
50	0xc03bf98d	-2.9371064
51	0xbdf5ae0a	-0.11996086
52	0xbdf77926	-0.12083654
53	0xc05bd73f	-3.4350126
54	0xc0d86355	-6.7621255
55	0xbe00900a	-0.12554947
56	0xc0e62e41	-7.193146
57	0x40338edd	2.8055947
58	0x408dd702	4.432496
59	0xbda5469d	-0.08070109
60	0xc0bcb5a7	-5.8971744
61	0xc0025153	-2.0362136
62	0xc17e4b0f	-15.893325
63	0xbdae5a3a	-0.08513303
64	0xbdb0b9f1	-0.086292155
65	0xbe822efd	-0.25426474
66	0xbd3ae89e	-0.045631997
67	0xc04ec80b	-3.2309597
68	0xbf06ff18	-0.5273299
69	0xbdb366f9	-0.08759875
70	0xbd881923	-0.066454194
71	0xbd7b0d26	-0.061291836
72	0xbd154c21	-0.036449555
73	0xbe2ef966	-0.17087325
74	0xbcfec0e1	-0.031097831
75	0xbf36e960	-0.7144985
76	0xc0964630	-4.696068
77	0xbdf6d526	-0.120523736
78	0xc0a9b2f6	-5.303096
79	0xc14e1b6d	-12.881696
80	0xc0e4da5c	-7.151655
81	0xbf9874f6	-1.1910694
82	0xbfaa3f10	-1.3300495
83	0xc09458e3	-4.6358504
84	0xbd902091	-0.070374615
85	0xc123e576	-10.243521
86	0xbd9e047c	-0.07715699
87	0xbf887b56	-1.0662639
88	0xbd2aba74	-0.04168172
89	0xbd98e5dc	-0.07465717
90	0xc0f71395	-7.7211404
91	0xc089c797	-4.305614
92	0xc0e6830e	-7.203498
93	0xc093594c	-4.6046505
94	0xc08d1320	-4.4085846
95	0xc0d9dac6	-6.8079557
96	0xbdaa86f9	-0.08326525
97	0x40a17bb5	5.046351
98	0xbcfbe884	-0.03075052
99	0xbdb4a11e	-0.08819793

fc2.weight f4 [10, 100]
0	0xc03b2d8b	-2.9246547
1	0x3e085575	0.1331385
2	0xbfbddf58	-1.4833784
3	0xbff80ed6	-1.9379528
4	0x3c8962ad	0.016770685
5	0xc056774e	-3.3510318
6	0xc0722038	-3.7832165
7	0x3d479d15	0.04873379
8	0xbfceb767	-1.614972
9	0xc089a725	-4.3016534
10	0x3d0b8271	0.034059945
11	0xc0e25a8e	-7.073554
12	0xbfda457a	-1.7052453
13	0xbf9aedbd	-1.2103802
14	0x3dc73d7a	0.097285226
15	0xbfca63ee	-1.5811746
16	0xbbe6eeec	-0.0070475247
17	0xc0b0b8fd	-5.5225816
18	0xc0e6fa09	-7.218022
19	0xc09d1e23	-4.909929
20	0x3e4dcb61	0.20097114
21	0xc082f5c7	-4.092502
22	0x3d0fa983	0.03507377
23	0x3d1f5e5a	0.03890834
24	0xbe424b72	-0.18974093
25	0xbcee8ee4	-0.02912087
26	0x3ee84240	0.45363045
27	0xc0f2d59a	-7.5885744
28	0xbfe3b9e5	-1.7791106
29	0x3dde3f24	0.10851887
30	0xbdb54271	-0.08850563
31	0xc0d29a95	-6.58137
32	0xc0f47612	-7.639413
33	0x3b790133	0.00379951
34	0xbcaacb5e	-0.020848926
35	0xc00d3a1a	-2.2066712
36	0xbed5035b	-0.41604123
37	0xbd289488	-0.041157275
38	0xbd318ada	-0.04334531
39	0xbfbaf935	-1.4607302
40	0xbe4daacc	-0.20084685
41	0xbfbb7321	-1.464451
42	0xc072f016	-3.7959037
43	0x3cc9417a	0.024567354
44	0xc0c8cfbc	-6.275358
45	0xc178a6a7	-15.540687
46	0xbd765743	-0.060141813
47	0xbfb7efb1	-1.4370023
48	0xbe52d458	-0.20588815
49	0xbf0d2285	-0.551308
50	0xc09a65b3	-4.8249145
51	0xbd092a7c	-0.033487782
52	0xbe20fe7e	-0.15722081
53	0xc1199ca4	-9.600742
54	0xc0cbf741	-6.3739324
55	0xbd9e01ba	-0.07715173
56	0xbeccc76e	-0.39995903
57	0xc0de7afb	-6.9525123
58	0xc0374916	-2.8638358
59	0xbdfe05b4	-0.124034315
60	0xc0085677	-2.1302774
61	0xc0690a44	-3.6412516
62	0xbe8ae950	-0.27131128
63	0xbe1596bd	-0.14608283
64	0xbd7401d5	-0.05957206
65	0x3cfe11c5	0.031014333
66	0xbc8f85e1	-0.017519893
67	0xc083b27f	-4.115539
68	0xbdabefd8	-0.08395356
69	0xbddf893c	-0.10914847
70	0x3d73b0c9	0.059494767
71	0xbdf656a5	-0.12028245
72	0xbd339046	-0.04383876
73	0xbd999f02	-0.075010315
74	0xbc301416	-0.010746976
75	0xbe526d2d	-0.2054946
76	0xc09ea3e4	-4.957506
77	0xbc1f3c5e	-0.0097189825
78	0xbf3f389c	-0.74695754
79	0xbd7d1fb4	-0.061797813
80	0xc0afedeb	-5.4977927
81	0xbe3448df	-0.17605923
82	0xc09a2ff2	-4.8183527
83	0xbe96b6fb	-0.29436478
84	0xbe100bc5	-0.1406699
85	0xc0f23c0c	-7.56983
86	0x3d8f34c2	0.06992485
87	0xc1158a44	-9.346256
88	0x3d9eda7f	0.077565186
89	0xbdc4d7d4	-0.096114784
90	0xbffac7f5	-1.9592272
91	0xc087b98d	-4.2414002
92	0xbfd9f6c8	-1.7028437
93	0xc128d527	-10.552039
94	0xc053cca3	-3.309365
95	0xc147dc08	-12.491219
96	0x39f1c00f	0.00046110197
97	0xbfeaf259	-1.8355209
98	0x3d03eca7	0.03220811
99	0xbc383747	-0.011243648
100	0xc0be02e7	-5.9378543
101	0xbd6795b5	-0.056539256
102	0xbfe81df8	-1.8134146
103	0xbf50d903	-0.81581134
104	0xbcecf452	-0.028925095
105	0xc00ad7c4	-2.1694193
106	0xbf9b0c4b	-1.2113127
107	0xbe970e99	-0.29503325
108	0xbfa87db3	-1.316336
109	0xc0090039	-2.1406386
110	0x3d0ba4f8	0.034092873
111	0xc006673c	-2.100051
112	0xc00b5d98	-2.1775875
113	0xbf792177	-0.9731669
114	0xbdee0546	-0.116220996
115	0x3e75152b	0.23933856
116	0xbe076efc	-0.13225931
117	0xbf9ecfd0	-1.2407169
118	0x3d033aee	0.03203862
119	0xbfe84499	-1.8145934
120	0xbe564a5a	-0.209268
121	0xc014eeb3	-2.327069
122	0xbd8df5a1	-0.069316156
123	0x3dd4ed6b	0.103968464
124	0xc008550a	-2.1301904
125	0xbdf8ddbd	-0.12151668
126	0xbf700d64	-0.9377043
127	0xbf8ecc58	-1.1156111
128	0xbed6e665	-0.41972652
129	0xbfcf9d46	-1.6219871
130	0x3c6e2bd7	0.014536819
131	0xc00a072c	-2.1566877
132	0xbfe20652	-1.7658179
133	0x3d80aaec	0.06282601
134	0xbfd79cc2	-1.6844714
135	0x3f35b9f5	0.7098687
136	0xbee4c518	-0.4468162
137	0xbd8e7a6d	-0.069569446
138	0xbd74194c	-0.059594437
139	0xbff805ce	-1.9376771
140	0xc1247585	-10.278691
141	0xbf5b0b0b	-0.85563725
142	0xbf851fc2	-1.0400317
143	0x3dc34760	0.09535098
144	0xc028e0d1	-2.6387217
145	0xbfdbdca8	-1.7176714
146	0xbf516879	-0.8180004
147	0xbfafa0cf	-1.372095
148	0xbef3ab0d	-0.4759144
149	0xc0482ade	-3.1276164
150	0xc0927746	-4.5770597
151	0x3c660db5	0.014041354
152	0xbe0e8f3c	-0.13921827
153	0xbfeff273	-1.8745865
154	0xbf7016b7	-0.9378466
155	0x3ddefcd6	0.108880684
156	0xbf34adab	-0.70577496
157	0xbfdd99d1	-1.7312566
158	0xbee6cefb	-0.4507979
159	0xbda80fed	-0.082061626
160	0xc0363056	-2.8467002
161	0xbe963199	-0.29334715
162	0xbf3e9ce4	-0.74458146
163	0xbd00d003	-0.031448375
164	0xbd8e7136	-0.06955187
165	0xbdaf8ba5	-0.08571557
166	0x3d48bcdd	0.04900824
167	0xbfa714cc	-1.3053222
168	0x3ec8ce79	0.39220026
169	0xbd1fc8da	-0.039009906
170	0xbaec3555	-0.0018021265
171	0xbc71a95f	-0.014749854
172	0xbe1da312	-0.15394238
173	0xbd8deaa3	-0.06929519
174	0x3db75323	0.08951404
175	0xbf1d5b5f	-0.61467546
176	0xbeac3a89	-0.3363841
177	0xbdc9a561	-0.09845997
178	0xbf49cfca	-0.78832686
179	0xbd9e8be1	-0.077415235
180	0xbfd0f425	-1.6324507
181	0xbdd0da6b	-0.1019791
182	0xc007b022	-2.1201253
183	0xbfbfd443	-1.4986652
184	0xbcbd5cb2	-0.02311549
185	0xbf6c00ec	-0.92188907
186	0xbd83b78f	-0.064314954
187	0xbf383cf2	-0.71967995
188	0xbd1608a2	-0.036629327
189	0xbd9dc490	-0.07703507
190	0xc01d8f17	-2.4618585
191	0xbd8655ed	-0.06559358
192	0xc0670705	-3.6098034
193	0xbe3cc64f	-0.18435024
194	0xbfb24c98	-1.3929625
195	0xbf539825	-0.8265403
196	0xbdf4abb6	-0.11946814
197	0xbea1c83c	-0.3159808
198	0xbcae0a95	-0.02124528
199	0xbd2cd372	-0.042193837
200	0xbfa86378	-1.3155355
201	0xbe0183cc	-0.12647933
202	0xbfd2b2b0	-1.6460781
203	0xbd85ef9c	-0.065398425
204	0xbd751cfc	-0.059842095
205	0xbf79c2d0	-0.97562885
206	0xbf3e9a0c	-0.74453807
207	0xbec340c8	-0.38135362
208	0xbfec490a	-1.845979
209	0xbe0f0995	-0.13968499
210	0xbddeaea2	-0.10873152
211	0xc0012eae	-2.018474
212	0xc090ff39	-4.531155
213	0xc03926bd	-2.8929894
214	0xbcf9d522	-0.030497137
215	0xbe95e701	-0.29277804
216	0xbd8ee899	-0.06977958
217	0xc092bf35	-4.5858407
218	0xbf90ace0	-1.1302757
219	0xc01624d9	-2.345999
220	0xbe63a085	-0.22229202
221	0xc088962a	-4.2683306
222	0x3ca7d735	0.02048836
223	0xbe1eecce	-0.15520021
224	0xbdd146d7	-0.1021859
225	0x3cb0c756	0.021579426
226	0xbf9d7fc5	-1.2304617
227	0xbf75bc1e	-0.9599017
228	0xbde23c81	-0.110466965
229	0xbe5ef47f	-0.21772955
230	0xbe197f45	-0.14989956
231	0xbed9b65d	-0.42521945
232	0xbffaad3a	-1.9584115
233	0xbdddad48	-0.108240664
234	0xbf35cd09	-0.71015984
235	0xbfb4ab90	-1.4114857
236	0x3ee2faee	0.4433207
237	0xbe12f257	-0.14350258
238	0xbddd329e	-0.1080067
239	0xc037e7d1	-2.873524
240	0xc0246aa6	-2.5690093
241	0xc00140dc	-2.0195837
242	0xbfbc644a	-1.4718106
243	0xbd4f2f5f	-0.050582286
244	0xbfe64d87	-1.799241
245	0xc0ac1622	-5.3777018
246	0xbfde5e1d	-1.7372471
247	0xbfddbf7e	-1.7324064
248	0xbcd6dcf5	-0.026228407
249	0xc06aaf83	-3.6669624
250	0xbfc6a207	-1.5518197
251	0xbceb7f4f	-0.028747229
252	0xbd360a2d	-0.044443298
253	0xbfa09996	-1.2546871
254	0xbfb0c738	-1.3810797
255	0x3c08cc63	0.008349511

fc2.bias f4 [10]
0	0xbeaf2218	-0.342057
1	0xbfed79e3	-1.8552822
2	0xbefe8572	-0.49711186
3	0xbebc8772	-0.36822087
4	0xbf6e862e	-0.9317349
5	0xbe56d929	-0.20981278
6	0xbfa70b68	-1.3050356
7	0xbf9bc79f	-1.2170295
8	0x3f3c8530	0.7364073
9	0x3f355a3e	0.70840824
