vae_spp.pth (torch_old, 293725 bytes, 8 tensors)

conv1.weight f4 [16, 1, 3, 3]
0.26556507 -0.5727379 -0.21939568 0.03935938 -0.8178744 -0.18298434 0.27506006 -0.13777784
-0.42882693 -3.777779 -0.5591729 -1.997343 -0.69724536 0.1383834 -1.1992986 -0.23182262
0.10850267 0.33721936 -0.19625235 0.0060795546 -0.13131218 -0.07320234 0.055812597 -0.30269644
0.12410995 -0.27127624 0.1100539 0.493288 0.083729066 -0.7881092 0.21394086 -0.3169683
-2.3720698 0.64304024 -0.7850155 -0.3537638 0.017285177 -1.5726864 0.10496058 -0.04112551
-0.97587126 0.4329906 -0.08727644 -0.8048432 -0.18064849 -0.43201926 0.25228927 -0.3378199
-0.5280884 0.16344523 -0.38792452 -0.4176005 -0.02075099 -0.092964664 -0.9723908 0.55686516
0.42991483 0.66989875 -0.33858636 -0.7104901 0.85535973 -1.0131348 -1.5841124 0.075364634
0.060432453 -0.20084225 0.06595999 -0.13568921 -0.10227145 -0.108025685 0.31181008 0.05759351
-0.28365785 -0.00685447 -0.19038452 0.05818448 -0.062162213 -0.10130904 -0.240656 0.029000767
-0.1412034 0.7027818 -0.94977474 -1.014465 0.37690467 -0.07834353 -0.9066208 0.34487492
-0.23730409 -2.8769112 0.25150314 -0.3085532 -0.67337966 0.6935721 0.03517067 -0.62738395
0.16975442 0.4777175 0.6731164 -0.28133053 -0.2964599 0.0029935816 -0.08123878 0.10394135
0.0388225 -0.274845 -0.29321432 0.20263597 0.032218713 -9.63821 -1.7220238 -1.3395194
0.18201959 0.06984044 -2.7586107 -0.44940624 0.2903034 -1.4662226 -0.6506087 -0.06352956
-9.041185 -0.097566575 0.42932704 -0.3339185 -2.0069416 -0.929102 -0.05214565 0.25789624
0.217092 -0.8330386 0.47085637 0.7013311 -0.4453941 -0.3712502 1.9639337 0.3157988
0.34454763 0.40813634 -0.49107593 0.30510625 0.050918825 -1.490754 -1.0940948 -1.229617
00000000: 25f8 873e f39e 12bf 43a9 60be 4d37 213d
00000010: 3760 51bf 3f60 3bbe acd4 8c3e a215 0dbe
00000020: 348f dbbe 22c7 71c0 f525 0fbf efa8 ffbf
00000030: ac7e 32bf 61b4 0d3e 9e82 99bf e962 6dbe
00000040: a636 de3d 04a8 ac3e 60f6 48be 0037 c73b
00000050: b376 06be 1ceb 95bd c09b 643d 07fb 9abe
00000060: 5c2d fe3d b8e4 8abe f063 e13d 3f90 fc3e
00000070: 257a ab3d 86c1 49bf 5013 5b3e ab49 a2be
00000080: fecf 17c0 499e 243f c7f6 48bf 8720 b5be
00000090: a599 8d3c ca4d c9bf 93f5 d63d 3973 28bd
000000a0: b3d2 79bf f2b0 dd3e fdbd b2bd 340a 4ebf
000000b0: ebfb 38be a131 ddbe 0f2c 813e bbf6 acbe
000000c0: cd30 07bf 305e 273e 0b9e c6be bccf d5be
000000d0: fbfd a9bc 4264 bebd 9aee 78bf b78e 0e3f
000000e0: cc1d dc3e 7c7e 2b3f 315b adbe aee2 35bf
000000f0: dbf8 5a3f 67ae 81bf 32c4 cabf c658 9a3d
00000100: 0588 773d 97a9 4dbe 0816 873d 1df2 0abe
00000110: b273 d1bd 923c ddbd 92a5 9f3e 2ce7 6b3d
00000120: 9a3b 91be 769b e0bb 29f4 42be d952 6e3d
00000130: ce9d 7ebd 1d7b cfbd 876e 76be 0493 ed3c
00000140: a097 10be 82e9 333f 7024 73bf fdd9 81bf
00000150: a6f9 c03e 9372 a0bd 4d18 68bf 7293 b03e
00000160: d8ff 72be 501f 38c0 05c5 803e affa 9dbe
00000170: 9c62 2cbf f18d 313f 1f0f 103d 3c9c 20bf
00000180: 1ad4 2d3e 6397 f43e 5b51 2c3f 8e0a 90be
00000190: 98c9 97be f72f 443b 8460 a6bd 34df d43d
000001a0: 5704 1f3d 7cb8 8cbe 3020 96be ce7f 4f3e
000001b0: c5f7 033d 1c36 1ac1 476b dcbf 5f75 abbf
000001c0: 5863 3a3e 8108 8f3d 148d 30c0 9318 e6be
000001d0: a6a2 943e 2fad bbbf 4b8e 26bf c91b 82bd
000001e0: b2a8 10c1 fcd0 c7bd c1d0 db3e 5ef7 aabe
000001f0: bb71 00c0 a1d9 6dbf ad96 55bd fa0a 843e
00000200: 5e4d 5e3e 0542 55bf 1614 f13e 6f8a 333f
00000210: b20a e4be 8214 bebe 2e62 fb3f 61b0 a13e
00000220: 8c68 b03e 3ff7 d03e 4e6e fbbe e336 9c3e
00000230: 4290 503d 07d1 bebf 4c0b 8cbf 1764 9dbf

conv1.bias f4 [16]
-0.609069 -0.7687411 -0.30337143 -1.4536703 -0.69154465 -0.58007324 -2.36397 -0.5072348
-0.067471206 -0.30929652 -0.42866883 -0.35421154 -0.4104311 -0.52861613 -1.6809441 -0.016457893
00000000: f2eb 1bbf 37cc 44bf 8053 9bbe de11 babf
00000010: 1209 31bf ae7f 14bf 494b 17c0 24da 01bf
00000020: 582e 8abd 1d5c 9ebe 7b7a dbbe 375b b5be
00000030: 0624 d2be 6353 07bf 2d29 d7bf b4d2 86bc

conv2.weight f4 [32, 16, 3, 3]
-0.016363999 -0.045920692 -0.10177433 -0.061565656 -0.022520704 -0.075842746 -0.05042301 0.021981686
-0.06434363 -0.074580476 -0.021279663 -0.07317004 0.015100782 -0.107541 -0.0003431714 0.02893082
0.00790348 0.008214372 0.068105094 0.0139707625 0.017311342 0.057901926 0.0074934736 -0.015574418
-0.065072924 0.047674127 -0.06440198 -0.08609596 -0.10477833 -0.03379177 -0.13019519 -0.1478258
-0.008845527 -0.032918856 -0.03286065 -0.005739538 -0.06068292 -0.055231925 -0.0010010399 -0.072741926
-0.1389722 -0.12069065 -0.12916006 -0.13974808 -0.122678325 -0.0093410155 -0.09629298 -0.110013075
-0.022619408 -0.0337989 -0.16511366 -0.04968916 -0.14029993 -0.13490435 -0.0042166985 -0.14214294
-0.011203837 -0.001465707 -0.09970728 -0.11412984 -0.10521789 -0.09151626 -0.061042003 -0.12873605
-0.07335394 -0.016677398 -0.0329459 -0.07321278 -0.14228235 -0.07485662 -0.13702963 -0.08726263
-0.11407672 -0.052706417 -0.023468599 -0.075175054 -0.07978886 -0.024143538 -0.063620806 0.012146418
-0.12833491 -0.0046580345 -0.0124024805 -0.08755846 -0.12188286 -0.09814207 -0.08832073 -0.037252087
-0.07039446 -0.1622644 -0.05713908 -0.009258384 -0.08624042 -0.04305229 -0.024576008 -0.02551223
0.011928977 -0.032388337 -0.11113411 -0.15213609 -0.07744533 -0.13074118 -0.044302106 -0.0052958294
0.0017358827 -0.14976034 -0.059868176 -0.10782805 -0.12443635 0.0059491904 -0.012064862 -0.07332247
-0.011423954 -0.07442775 -0.02054139 -0.14532098 -0.031724013 -0.02323566 -0.03275926 -0.013109478
-0.09371624 -0.14159943 -0.010653901 -0.018958792 -0.0077462303 -0.016760638 -0.11148063 -0.057787724
-0.053421266 0.008104704 -0.044766966 -0.12786323 -0.0726027 -0.09744769 -0.14029893 -0.024015564
-0.10752928 -0.05178397 -0.008477587 -0.07893574 0.00083936495 -0.08694273 -0.041486923 -0.04924125
-0.28788665 -0.19194448 -0.08955939 -0.011014546 -0.023569565 -0.120379806 0.2386943 -0.13958423
-0.13364564 -0.44180012 -0.2531914 -0.3578926 -0.8415915 -0.8119373 -0.59654033 0.025977634
-0.15806429 -0.15858562 -0.08282363 0.012923896 0.06056238 0.054477952 -0.062436163 0.016335428
-0.04322956 -0.02723381 0.0512461 -0.024530914 -0.3850659 -0.09617288 -0.6256584 0.026701812
-0.28377986 -0.4606211 -0.0681425 -0.316909 -0.30319387 -0.4206442 0.029770005 -0.30964705
-0.022639697 -0.12002465 -0.21587437 -0.41890678 -0.17768301 -0.18835649 -0.1500485 -0.27995604
-0.09532307 0.024185404 -0.0456645 0.09708678 -0.14688802 -0.10188514 -0.21046323 0.16796179
-0.44376767 -0.5734534 -0.39400864 -0.42318535 -0.40752384 -0.14131413 -0.18316571 -0.41469285
-0.327612 -0.43973824 -0.326189 -0.13337259 0.009728377 -0.10351573 -0.14904596 -0.03404854
-0.12905319 -0.10012152 -0.015884921 -0.11350744 -0.1195898 -0.024973713 -0.07776891 -0.09999424
0.009391619 -0.44365552 -0.5044774 -0.19976747 -0.5028871 -0.5883557 -0.20495106 -0.88399345
-0.69613606 -0.93321294 -0.5279751 -0.4394252 -0.54381675 -0.91875 -0.41750133 -0.40998957
-0.47410795 -0.36748832 -0.39898312 -0.3413935 -0.038552787 -0.4037026 -0.39176577 -0.032794062
-0.011672362 -0.19347066 -0.07015132 -0.03664338 -0.67984533 -0.75902784 -0.6027931 -0.79208624
00000000: cb0d 86bc 5617 3cbd 0f6f d0bd 452c 7cbd
00000010: 577d b8bc 7153 9bbd 5c88 4ebd f012 b43c
00000020: 98c6 83bd a6bd 98bd b052 aebc 2dda 95bd
00000030: 4569 773c 753e dcbd b0eb b3b9 5400 ed3c
00000040: 997d 013c 9395 063c af7a 8b3d a0e5 643c
00000050: 84d0 8d3c 922a 6d3d d08b f53b d82b 7fbc
00000060: f444 85bd f245 433d 2fe5 83bd 1453 b0bd
00000070: 0596 d6bd 3d69 0abd e351 05be a65f 17be
00000080: d4ec 10bc ecd5 06bd e498 06bd bc12 bcbb
00000090: a78e 78bd df3a 62bd 5335 83ba b8f9 94bd
000000a0: ba4e 0ebe a92c f7bd 8942 04be 1f1a 0fbe
000000b0: c63e fbbd 0f0b 19bc 4135 c5bd 894e e1bd
000000c0: 564c b9bc b770 0abd 8e13 29be dc86 4bbd
000000d0: c9aa 0fbe 5e24 0abe 3b2c 8abb eb8d 11be
000000e0: 4c90 37bc f71c c0ba 5533 ccbd e8bc e9bd
000000f0: 7a7c d7bd e06c bbbd 2e07 7abd 62d3 03be
00000100: 973a 96bd 0a9f 88bc 48f2 06bd 95f0 95bd
00000110: 77b2 11be 6d4e 99bd 7f51 0cbe c0b6 b2bd
00000120: 0ea1 e9bd afe2 57bd 3841 c0bc 61f5 99bd
00000130: 5868 a3bd abc8 c5bc a04b 82bd c501 473c
00000140: 3a6a 03be 6da2 98bb c633 4bbc da51 b3bd
00000150: b99d f9bd b6fe c8bd 80e1 b4bd a595 18bd
00000160: f82a 90bd a428 26be ab0a 6abd 7ab0 17bc
00000170: d19e b0bd 9957 30bd a053 c9bc 06ff d0bc
00000180: c271 433c a2a9 04bd 489a e3bd 90c9 1bbe
00000190: a89b 9ebd 04e1 05be 2076 35bd a388 adbb
000001a0: 8f86 e33a c65a 19be 5538 75bd f4d4 dcbd
000001b0: 7cd8 febd 6df1 c23b b3ab 45bc 172a 96bd
000001c0: 892b 3bbc 946d 98bd 6b46 a8bc 06cf 14be
000001d0: 0af1 01bd b658 bebc 932e 06bd 23c9 56bc
000001e0: 4dee bfbd 71ff 10be b38d 2ebc 784f 9bbc
000001f0: 17d4 fdbb 9b4d 89bc f54f e4bd d2b2 6cbd
00000200: 42d0 5abd 98c9 043c 915d 37bd 94ee 02be
00000210: b9b0 94bd a892 c7bd 86aa 0fbe 4abc c4bc
00000220: 5038 dcbd 6e1b 54bd 94e5 0abc 10a9 a1bd
00000230: d408 5c3a 080f b2bd 31ee 29bd 31b1 49bd
00000240: e165 93be 188d 44be ea6a b7bd 5b76 34bc
00000250: f614 c1bc b089 f6bd 476c 743e 2bef 0ebe
00000260: 67da 08be a033 e2be 4ea2 81be b33d b7be
00000270: 8a72 57bf 1fdb 4fbf deb6 18bf 0ccf d43c
00000280: 9bdb 21be 4564 22be 6f9f a9bd c0be 533c
00000290: 4210 783d 4624 5f3d 10bd 7fbd e0d1 853c
000002a0: 7b11 31bd 7019 dfbc 6ee7 513d 0ef5 c8bc
000002b0: 5c27 c5be 49f6 c4bd 262b 20bf c2bd da3c
000002c0: 984b 91be 87d6 ebbe 4c8e 8bbd e541 a2be
000002d0: 3a3c 9bbe ad5e d7be 3ae0 f33c 0f8a 9ebe
000002e0: e376 b9bc 7ccf f5bd 2c0e 5dbe f37a d6be
000002f0: 89f2 35be 86e0 40be 50a6 19be 6656 8fbe
00000300: be38 c3bd 7820 c63c b30a 3bbd 6fd5 c63d
00000310: d069 16be 28a9 d0bd ac83 57be 2dfe 2b3e
00000320: 8435 e3be d8cd 12bf 80bb c9be c0ab d8be
00000330: f7a6 d0be a7b4 10be cb8f 3bbe 9f52 d4be
00000340: c3bc a7be 5f25 e1be 3f02 a7be d392 08be
00000350: c563 1f3c 0e00 d4bd 819f 18be 7b76 0bbd
00000360: 8526 04be 830c cdbd 1821 82bc 9776 e8bd
00000370: 7feb f4bd ac95 ccbc 4e45 9fbd c8c9 ccbd
00000380: 4edf 193c d126 e3be 6e25 01bf d88f 4cbe
00000390: 36bd 00bf 7b9e 16bf b1de 51be 654d 62bf
000003a0: f935 32bf 0be7 6ebf 6029 07bf 57fc e0be
000003b0: 9337 0bbf 3333 6bbf bcc2 d5be 27ea d1be
000003c0: 47be f2be 6e27 bcbe 8447 ccbe 21cb aebe
000003d0: 87e9 1dbd 1bb2 cebe 8695 c8be 1153 06bd
000003e0: 6f3d 3fbc 2c1d 46be 7fab 8fbd 5e17 16bd
000003f0: 580a 2ebf a64f 42bf a650 1abf 2ac6 4abf

conv2.bias f4 [32]
-0.05261278 -0.73962224 -0.5015171 -0.55478144 -0.04419675 -0.14580406 -0.10441174 -0.064116
-0.24463472 -0.436408 -0.06603001 -0.5829272 -0.22997396 -0.3283039 -0.11718666 -0.12237714
-0.11998062 -0.34451693 -0.11202567 -0.12379388 -0.34193078 -0.17406437 -0.1234953 -0.10478859
-0.04033129 -0.11326307 -0.37929943 -0.19146422 -0.12992652 -0.31335482 -0.09305349 -0.40343887
00000000: 8080 57bd e257 3dbf 6d63 00bf 2806 0ebf
00000010: a707 35bd a94d 15be d3d5 d5bd 404f 83bd
00000020: 8681 7abe df70 dfbe be3a 87bd b83a 15bf
00000030: 4b7e 6bbe 7317 a8be 8fff efbd dea0 fabd
00000040: 66b8 f5bd 8664 b0be b76d e5bd a587 fdbd
00000050: 8d11 afbe ee3d 32be 1beb fcbd 669b d6bd
00000060: 6c32 25bd 78f6 e7bd 8933 c2be 320f 44be
00000070: 750b 05be 0b70 a0be d492 bebd 8a8f cebe

fc1.weight f4 [100, 672]
0.023800727 0.029071968 0.025529707 0.08111025 0.053278916 0.085220724 0.07271966 0.037297875
0.010668956 0.020553336 0.016735202 -0.057970133 0.056413595 0.0703503 0.055375062 0.07008892
-0.23294571 0.21778621 0.47426936 0.930005 -0.24872306 -0.106014155 0.70189774 0.69414526
0.31917468 0.5773926 0.46243542 -0.082243405 0.09662885 -0.13703164 0.37130585 0.35265166
0.5599212 0.63746065 0.4963923 0.24653053 0.39148992 0.45234984 0.15952183 0.30050668
0.30851442 0.45946994 0.33224627 0.4296381 0.3222238 0.4413645 0.3517646 0.4124339
0.2786433 0.2134577 0.35195366 0.39700726 0.21295924 0.06278 -0.047634047 -0.14100954
-0.32592246 -0.26660034 0.25404036 0.2506619 -0.18772677 0.052882273 0.058869142 0.08509687
0.061744794 0.058729153 0.067784205 0.019495038 0.0023050588 0.004186019 0.028595772 0.016843757
-0.03835211 0.01514286 -0.017700639 0.00544412 0.05098874 0.068584114 0.031859733 0.088939235
-0.07146151 -0.025786681 0.062624075 0.045072336 -0.06812023 0.0516109 0.094485156 -0.076126695
-0.03398338 -0.03895944 0.0029424536 -0.045853868 -0.01282807 0.067112006 -0.053646278 0.094470374
0.03208437 0.011167371 0.014458394 0.110851385 0.006922209 0.052095298 0.04241591 0.094319254
0.10203778 -0.017123211 0.009527583 -0.026388714 0.07917608 0.09628066 0.04121181 0.0024107872
-0.68529725 0.031684764 0.13632438 -0.5673668 0.25906694 -0.83339095 -0.022041092 0.11791176
-1.38041 -0.59688395 0.28274682 -0.037308946 -0.33017415 -0.54898226 -1.3522973 0.049217146
0.035451487 0.0779954 0.07714152 0.025844185 0.08052548 0.20987625 0.063597254 0.038676154
-0.010898501 0.12336285 0.064006165 0.032452133 0.065934174 0.10257512 0.015033561 0.031748954
-0.8053525 0.47789642 0.10953171 0.13755696 -1.0627203 -1.409753 -0.13588418 -1.1152049
-0.7085647 -0.51500726 -0.33736148 -0.20183435 -0.018155893 -0.99221855 -0.5551409 -0.10014458
0.05833042 -0.052644704 -0.008300902 0.08038543 -0.0749282 0.013338142 -0.057480965 0.023510993
-0.056759946 -0.08394291 -0.024506172 0.06534853 0.04762067 0.096114956 -0.04959209 -0.04023031
0.06845687 0.40322733 0.4769439 0.54659826 0.070878856 0.29293594 0.43391466 0.24078262
0.30686364 0.2328351 0.20494233 0.569208 0.13174418 0.2406011 0.5731651 0.42098662
0.07554101 0.03315455 0.042114254 0.0783592 -0.025129437 -0.022295762 -0.004948487 -0.027248235
-0.03570425 -0.0398749 0.013200383 -0.0040377756 0.053431477 0.07945727 0.054460764 0.10523803
0.020405363 0.04922679 -0.0012327083 0.020339532 0.059737254 0.006769369 0.012274284 0.03379147
0.008442755 -0.049134597 0.024684573 -0.009062104 0.050359342 0.039398093 0.03145732 0.019353006
0.09217844 0.026094066 -0.046439443 -0.027775632 -0.024787037 0.0623781 0.09266071 -0.07689402
-0.039210837 -0.090285614 0.048636556 0.07672088 0.025028542 0.07876711 -0.06726957 -0.037882004
0.054586258 0.0082466565 0.043530412 0.057171226 0.014887529 -0.03600128 0.013784284 0.023103751
0.03483673 -0.06936652 0.04026769 0.05989355 0.0386783 0.011570519 0.07001762 -0.007574436
00000000: bef9 c23c 5628 ee3c ad23 d13c 211d a63d
00000010: fe3a 5a3d 3488 ae3d 0cee 943d a8c5 183d
00000020: d8cc 2e3c 785f a83c 4318 893c 1772 6dbd
00000030: f111 673d d113 903d f6d0 623d c88a 8f3d
00000040: 5289 6ebe 5903 5f3e 6fd3 f23e cf14 6e3f
00000050: 42b1 7ebe f31d d9bd 92af 333f 81b3 313f
00000060: dd6a a33e 00d0 133f 56c4 ec3e 3b6f a8bd
00000070: 59e5 c53d 0652 0cbe cd1b be3e c28e b43e
00000080: ff56 0f3f 9f30 233f 2227 fe3e 8072 7c3e
00000090: 5e71 c83e 669a e73e b159 233e 03dc 993e
000000a0: 9af5 9d3e a53f eb3e 2f1c aa3e 86f9 db3e
000000b0: 85fa a43e 87fa e13e 7d1a b43e 892a d33e
000000c0: 56aa 8e3e a894 5a3e 4533 b43e 8944 cb3e
000000d0: fd11 5a3e cd92 803d eb1b 43bd ce64 10be
000000e0: 4fdf a6be d77f 88be 9411 823e c256 803e
000000f0: 723b 40be 159b 583d c520 713d 4547 ae3d
00000100: 1ce8 7c3d fb8d 703d 72d2 8a3d 0fb4 9f3c
00000110: 7810 173b df2a 893b ae41 ea3c ebfb 893c
00000120: 1a17 1dbd c219 783c ee00 91bc 9764 b23b
00000130: 92d9 503d d475 8c3d 5a7f 023d c625 b63d
00000140: 6a5a 92bd 973e d3bc 0d41 803d c59d 383d
00000150: 9f82 8bbd f365 533d 6f81 c13d 50e8 9bbd
00000160: 2832 0bbd ef93 1fbd 2ed6 403b 44d1 3bbd
00000170: d32c 52bc 0572 893d 33bc 5bbd af79 c13d
00000180: e66a 033d 59f7 363c e6e2 6c3c 0d06 e33d
00000190: b3d3 e23b e161 553d 4ebc 2d3d 742a c13d
000001a0: 2ff9 d03d fa45 8cbc 9419 1c3c 252d d8bc
000001b0: 1227 a23d cb2e c53d b7cd 283d 4cfe 1d3b
000001c0: a46f 2fbf e2c7 013d 9e98 0b3e f33e 11bf
000001d0: 6ca4 843e 1c59 55bf 858f b4bc b97b f13d
000001e0: 46b1 b0bf 63cd 18bf 31c4 903e 44d1 18bd
000001f0: 960c a9be 1a8a 0cbf 1418 adbf eb97 493d
00000200: 9435 113d 0dbc 9f3d 60fc 9d3d 2fb7 d33c
00000210: 8bea a43d cde9 563e 473f 823d e36a 1e3d
00000220: a08f 32bc a9a5 fc3d aa15 833d 87ec 043d
00000230: 7f08 873d e812 d23d 534f 763c 310b 023d
00000240: 952b 4ebf d7ae f43e 2952 e03d bbdb 0c3e
00000250: 3807 88bf c972 b4bf 3925 0bbe 09bf 8ebf
00000260: 7f64 35bf 84d7 03bf a5ba acbe aaad 4ebe
00000270: abbb 94bc 0902 7ebf b71d 0ebf 9a18 cdbd
00000280: e1eb 6e3d f9a1 57bd 8200 08bc 1ea1 a43d
00000290: f573 99bd 3988 5a3c 2971 6bbd 209a c03c
000002a0: 1e7d 68bd 43ea abbd 2bc1 c8bc 73d5 853d
000002b0: e40d 433d ebd7 c43d 1321 4bbd 8ac8 24bd
000002c0: 1e33 8c3d d073 ce3e fe31 f43e dded 0b3f
000002d0: ef28 913d b3fb 953e 102a de3e b88f 763e
000002e0: 3b1d 9d3e 536c 6e3e 67dc 513e 9eb7 113f
000002f0: f2e7 063e 2260 763e f3ba 123f 8f8b d73e
00000300: 3fb5 9a3d 11cd 073d ff7f 2c3d ca7a a03d
00000310: 40dc cdbc 9aa5 b6bc eb26 a2bb b137 dfbc
00000320: 9f3e 12bd dd53 23bd 6b46 583c 514f 84bb
00000330: f7da 5a3d 7eba a23d 4012 5f3d 0987 d73d
00000340: 2629 a73c 08a2 493d d492 a1ba 179f a63c
00000350: 0daf 743d 95d1 dd3b 141a 493c ed68 0a3d
00000360: 7b53 0a3c 5c41 49bd 4d37 ca3c 3879 14bc
00000370: 9945 4e3d e55f 213d 64d9 003d 328a 9e3c
00000380: 0dc8 bc3d 39c3 d53c 4937 3ebd b989 e3bc
00000390: 2f0e cbbc 2e80 7f3d e6c4 bd3d 9d7a 9dbd
000003a0: 8b9b 20bd aae7 b8bd 2037 473d d61f 9d3d
000003b0: a808 cd3c a750 a13d a1c4 89bd 292a 1bbd
000003c0: d795 5f3d fc1c 073c f24c 323d 602c 6a3d
000003d0: d3ea 733c 1476 13bd 7ad7 613c 1444 bd3c
000003e0: f6b0 0e3d 0910 8ebd bcef 243d f052 753d
000003f0: 236d 1e3d 4692 3d3c 6665 8f3d f932 f8bb

fc1.bias f4 [100]
-0.55833596 -0.20258793 -5.3416214 -5.5540957 -0.11293852 -0.012018798 -0.060571294 -0.101515114
3.9602253 0.0286465 6.7837358 -4.9803104 -0.45665506 -2.1884813 -0.08377853 -0.062240195
0.17348993 -0.05292813 -0.6277021 -0.15587047 3.17437 6.286997 -1.2547157 -0.38831732
-0.3449005 -0.065003194 -0.3716385 -1.6684905 -1.5851114 -0.3432832 -0.04571546 -0.0948287
-0.30785814 -0.18028371 -0.32064933 -0.05797596 -0.057145346 1.0612754 -0.35858506 0.0105830915
-0.09910724 -0.052701827 -4.014697 -0.042601332 -0.10651888 14.31587 -5.9454274 -6.536728
-0.07669292 2.6842957 -0.11084976 -0.10387155 -0.072218 -5.881032 -3.5270615 -0.10139365
-1.2997118 -0.046784457 -0.104294986 -1.2802743 -0.060826816 -0.66573477 -0.16040623 -0.33926657
1.2076067 -0.042972766 3.1611192 -0.06296368 -0.07208478 -0.1457303 -0.9885317 -0.36357635
-0.62717015 0.20379749 -0.07575538 -0.064326234 0.5563721 -2.498166 -0.21160924 6.6959634
-0.30128014 -0.5923567 -1.5889485 -0.074817546 -0.94413257 -0.3282908 -0.70940226 -0.05714724
-0.22636019 -0.1094738 8.512655 -1.6394134 -0.08053668 -1.0570171 -0.05078488 -0.47536147
-6.5695443 -0.06775272 -0.7148415 -3.0503814
00000000: 1bef 0ebf 3673 4fbe 90ee aac0 27bb b1c0
00000010: 504c e7bd 7eea 44bc 9b19 78bd 28e7 cfbd
00000020: 5574 7d40 11ac ea3c 5d14 d940 b45e 9fc0
00000030: b1ce e9be 1410 0cc0 1494 abbd 93ef 7ebd
00000040: 58a7 313e 2bcb 58bd 16b1 20bf 829c 1fbe
00000050: e128 4b40 142f c940 869a a0bf 87d1 c6be
00000060: cc96 b0be 6520 85bd 6747 bebe 1991 d5bf
00000070: eee4 cabf d1c2 afbe 2240 3bbd 8d35 c2bd
00000080: 959f 9dbe 4b9c 38be 262c a4be 3378 6dbd
00000090: 3d11 6abd dfd7 873f 7698 b7be b464 2d3c
000000a0: bdf8 cabd dfdd 57bd 6678 80c0 bc7e 2ebd
000000b0: 9226 dabd ce0d 6541 f140 bec0 e02c d1c0
000000c0: 2d11 9dbd 80cb 2b40 3305 e3bd 9bba d4bd
000000d0: 08e7 93bd 6a31 bcc0 60bb 61c0 79a7 cfbd
000000e0: f55c a6bf 0fa1 3fbd 9c98 d5bd 07e0 a3bf
000000f0: 8a25 79bd 986d 2abf 8841 24be 59b4 adbe
00000100: db92 9a3f 3604 30bd c74f 4a40 1af3 80bd
00000110: 2fa1 93bd 533a 15be 6a10 7dbf ae26 babe
00000120: 398e 20bf 4ab0 503e a325 9bbd 79bd 83bd
00000130: 676e 0e3f f4e1 1fc0 18b0 58be 5545 d640
00000140: 6441 9abe b0a4 17bf aa62 cbbf f139 99bd
00000150: acb2 71bf bb15 a8be 639b 35bf 3913 6abd
00000160: f7ca 67be cd33 e0bd d633 0841 4cd8 d1bf
00000170: 6af0 a4bd 564c 87bf ce03 50bd 9462 f3be
00000180: b539 d2c0 f0c1 8abd daff 36bf 7339 43c0

fc2.weight f4 [10, 100]
-0.13337082 -0.20825785 -1.6703736 -1.6457618 -0.1018829 -0.5658528 0.06816439 0.011755409
-0.20449542 -1.9152302 -0.5170003 -0.1583186 -0.27854967 -2.7457845 -0.02712396 -0.07650834
-12.379953 0.021039395 -2.4391162 -0.24310428 -4.697148 -2.3461914 0.34831122 -0.01789144
-20.388887 -0.071651965 0.038273964 -0.41408563 -7.4426913 0.023394153 -0.04006504 -0.09138819
-0.23427193 0.12803902 -0.42498004 0.09414025 0.05164597 -22.565516 -0.06142963 0.16956437
-3.923627 -0.044498507 -0.47137803 0.00688241 0.05284662 -1.4705304 0.11480472 -3.989198
-0.026944706 -32.96949 -0.08254156 -0.065759055 -0.007844376 -2.974862 -0.32291058 -0.11571121
-0.08370785 -0.024669133 0.09096818 0.89651835 -0.045059297 0.02831378 -0.046226077 -1.9027
-4.3779693 0.013397379 -8.1104555 -0.03893039 0.0328579 -0.034098856 -2.1356704 -0.097083114
-3.8511395 -12.528863 -0.14907701 0.014243818 -6.6823535 -0.7404454 -0.17692174 -1.3087698
-0.14787126 0.07248243 -1.8305354 -0.084719636 -6.18374 -5.241818 -0.051383562 0.028401403
-0.116638385 0.0041088397 -3.4067287 -0.6275064 -0.03373112 -4.8958597 0.03916497 -0.14099984
-1.5388091 0.02311525 -0.05558859 -0.76867646 -0.03818915 -0.19701523 -3.0051024 -1.8288399
0.07261652 0.5318546 0.035524916 -0.15670319 -0.48485613 -2.7223802 -0.39170736 -1.1667415
0.26407725 -2.2566693 -0.06827369 -0.015240079 -4.7676387 0.06678007 -1.2252535 -0.03987943
-3.0220861 -1.1014029 -0.6347562 -0.27629203 -0.9231011 -0.14943445 0.22705348 -9.70992
-4.1432643 -0.24249204 -0.14836353 0.07074153 -0.5458838 -0.19671094 -0.17621475 -0.07133344
0.05373351 -8.01521 -0.029898603 0.052147068 -2.3253868 0.053102717 -0.30651605 -0.011149985
0.016681928 -0.9148325 -0.4923651 -3.085461 0.08155582 -0.4060198 0.10762596 0.01796748
0.027634315 -2.836669 -0.4306045 0.05368565 -0.5291495 0.048900496 -0.057418566 -1.6069463
-0.14626154 -0.22663392 -0.07369911 -1.0243379 -1.9420764 -0.009362909 -2.3293393 -0.035748947
-0.10627128 -0.18622386 -2.632303 0.15865013 -8.028245 -13.081683 -0.09143459 0.048595592
-2.5460486 -0.94659984 -0.28083393 -1.1895924 -0.07926746 0.14975037 -3.2112796 -0.009969902
-4.7826586 -1.0789346 -0.102962606 0.010094768 0.007860521 -0.11234577 -1.9319785 -0.5647208
-0.09271566 -2.9440055 -0.12999816 0.014707088 -1.4870745 0.14548206 -0.21184967 -1.090005
0.5093552 0.015894588 -0.9639499 -0.8484877 0.007818172 0.41248167 -0.14288977 0.05746502
-0.63939995 -1.2222121 -0.5358232 -0.6978024 -0.40838978 -3.298562 -0.027953304 -0.0964021
-17.030617 -0.08394708 -8.367832 -0.042043418 -4.369017 -1.908329 0.0033637623 -0.3137471
-1.3063439 -0.14268103 -0.12066183 -4.180804 -5.084743 0.27755532 -0.03221483 0.12326511
-0.08132813 0.058693238 -0.44341373 0.029337568 -0.07781881 -8.933115 -0.041121073 -0.8072174
0.06846049 -0.075023115 -0.20726338 -0.12756473 0.015148006 -1.5644926 -0.8405307 -8.441434
0.07942086 -0.33674583 -0.009704769 0.035085205 -0.14365731 -3.0445743 -0.23386338 -0.019867064
00000000: 5c92 08be 8c41 55be cdce d5bf 53a8 d2bf
00000010: fba7 d0bd bbdb 10bf c699 8b3d c299 403c
00000020: 3f67 51be 4326 f5bf 225a 04bf 451e 22be
00000030: 109e 8ebe efba 2fc0 1133 debc 68b0 9cbd
00000040: 4a14 46c1 cf5a ac3c 7b1a 1cc0 54f0 78be
00000050: 094f 96c0 0028 16c0 d955 b23e 1291 92bc
00000060: 711c a3c1 44be 92bd 29c5 1c3d 0803 d4be
00000070: 872a eec0 18a5 bf3c 3d1b 24bd bb29 bbbd
00000080: fbe4 6fbe a91c 033e fc96 d9be 9acc c03d
00000090: ba8a 533d 2d86 b4c1 a39d 7bbd 48a2 2d3e
000000a0: b41c 7bc0 1144 36bd 7658 f1be d785 e13b
000000b0: b375 583d 573a bcbf bd1e eb3d 054f 7fc0
000000c0: 25bb dcbc c2e0 03c2 8d0b a9bd afac 86bd
000000d0: b385 00bc 2464 3ec0 8954 a5be 00fa ecbd
000000e0: 056f abbd ec16 cabc 864d ba3d 3a82 653f
000000f0: 1990 38bd 4df2 e73c 8e57 3dbd ac8b f3bf
00000100: 5318 8cc0 ae80 5b3c 6dc4 01c1 7975 1fbd
00000110: 0196 063d 3eab 0bbd d3ae 08c0 83d3 c6bd
00000120: 1279 76c0 3976 48c1 a5a7 18be e75e 693c
00000130: d7d5 d5c0 d48d 3dbf f92a 35be c585 a7bf
00000140: 906b 17be ab71 943d fc4e eabf 7d81 adbd
00000150: 33e1 c5c0 f9bc a7c0 9277 52bd 0faa e83c
00000160: 1be0 eebd 72a3 863b d807 5ac0 42a4 20bf
00000170: a529 0abd e2aa 9cc0 736b 203d 4362 10be
00000180: b2f7 c4bf 315c bd3c ddb0 63bd fbc7 44bf
00000190: 3a6c 1cbd 5cbe 49be 9953 40c0 6d17 eabf
000001a0: f8b7 943d a027 083f 9382 113d cd76 20be
000001b0: 103f f8be 7a3b 2ec0 de8d c8be c957 95bf
000001c0: 2235 873e 456d 10c0 14d3 8bbd 86b1 79bc
000001d0: 7f90 98c0 fdc3 883d 1bd5 9cbf 9d58 23bd
000001e0: dc69 41c0 c5fa 8cbf 627f 22bf 2676 8dbe
000001f0: 5b50 6cbf 5805 19be b580 683e d55b 1bc1
00000200: 9f95 84c0 d54f 78be 9cec 17be efe0 903d
00000210: 0abf 0bbf 986e 49be a471 34be 4417 92bd
00000220: ab17 5c3d 4d3e 00c1 eaed f4bc 2a98 553d
00000230: 23d3 14c0 3c82 593d acef 9cbe 6dae 36bc
00000240: 8aa8 883c 7632 6abf 4717 fcbe 3178 45c0
00000250: bd06 a73d d4e1 cfbe 006b dc3d 8930 933c
00000260: 5c61 e23c fc8b 35c0 3178 dcbe 7ce5 5b3d
00000270: 5776 07bf e34b 483d bb2f 6bbd 6bb0 cdbf
00000280: 96c5 15be b912 68be 8fef 96bd 811d 83bf
00000290: f695 f8bf e366 19bc e513 15c0 7d6d 12bd
000002a0: c2a4 d9bd 78b1 3ebe a777 28c0 2e75 223e
000002b0: b173 00c1 934e 51c1 0f42 bbbd 2c0c 473d
000002c0: 76f2 22c0 5e54 72bf 77c9 8fbe 9044 98bf
000002d0: fa56 a2bd 2958 193e 9b85 4dc0 cd58 23bc
000002e0: 8a0b 99c0 871a 8abf 0fde d2bd 8764 253c
000002f0: 6ac9 003c 8a15 e6bd 124b f7bf 8b91 10bf
00000300: b5e1 bdbd 966a 3cc0 3d1e 05be fff5 703c
00000310: 7558 bebf 40f9 143e 1fef 58be 4985 8bbf
00000320: 1a65 023f 5e35 823c 6cc5 76bf 7d36 59bf
00000330: ca17 003c cc30 d33e b251 12be 7160 6b3d
00000340: b7af 23bf 7271 9cbf b62b 09bf 2ea3 32bf
00000350: 7718 d1be a41b 53c0 54fe e4bc 776e c5bd
00000360: b43e 88c1 72ec abbd a4e2 05c1 b835 2cbd
00000370: fdce 8bc0 2044 f4bf 9172 5c3b 76a3 a0be
00000380: 4736 a7bf fa1a 12be 8d1d f7bd 25c9 85c0
00000390: 37b6 a2c0 bb1b 8e3e b3f3 03bd 6b72 fc3d
000003a0: 5d8f a6bd 5268 703d 2007 e3be 5755 f03c
000003b0: 785f 9fbd 0aee 0ec1 926e 28bd cda5 4ebf
000003c0: 0335 8c3d b8a5 99bd da3c 54be 54a0 02be
000003d0: 582f 783c 4b41 c8bf 052d 57bf 1d10 07c1
000003e0: 67a7 a23d f369 acbe c000 1fbc 81b5 0f3d
000003f0: e71a 13be 4eda 42c0 e279 6fbe 41c0 a2bc

fc2.bias f4 [10]
-0.70583224 -0.6458118 0.3972469 0.45081338 -1.092394 -0.15370409 -1.1612921 -0.1233432
0.68557286 -0.24773246
00000000: 6cb1 34bf ec53 25bf f263 cb3e 03d1 e63e
00000010: 91d3 8bbf 9b64 1dbe 38a5 94bf 5c9b fcbd
00000020: b481 2f3f 94ad 7dbe
