vae_spp.pth (torch_old, 293725 bytes, 8 tensors)

conv1.weight f4 [16, 1, 3, 3]
000000 00 db 5f 3d 88 43 5a 3d 6e 92 11 3e 02 6c 28 3e
       0.054652214 0.05328706 0.14216015 0.16447452
000010 8b 28 7b be 00 52 1f ba be 0c 46 be a8 8e 40 3d
       -0.24527185 -0.00060775876 -0.19340798 0.047011048
000020 32 84 27 3e 8b de 6e be 18 5d 42 bd c3 46 86 be
       0.16359022 -0.23327081 -0.047452062 -0.26225862
000030 35 2e 9e 3e 00 0c 07 3d 00 e1 fb bd a2 2d 9c be
       0.30894628 0.03297043 -0.12298775 -0.30503565
000040 00 b0 ab bc 86 e7 6a be 20 15 2f be ba 40 84 be
       -0.020957947 -0.22939882 -0.17097902 -0.25830632
000050 a7 48 9b be 80 7f 89 bd ee 7a 90 be 90 35 1d 3e
       -0.30328867 -0.06713772 -0.28218788 0.15352464
000060 83 1e 7f be ce 78 32 be 63 00 a8 be 7b 4d 28 be
       -0.24913983 -0.17428896 -0.32812795 -0.16435806
000070 80 43 d0 bc 8b 5b 6a be 80 ed 27 bd 6e 39 38 be
       -0.025422812 -0.22886483 -0.040997982 -0.17990658
000080 f2 ac 10 3e 80 53 35 be bf 5a 88 be ba ab 3a 3e
       0.14128473 -0.17707634 -0.26631734 0.18229571
000090 f2 20 a0 be 90 d2 bd bc c4 ed 81 3d 40 ce 59 3d
       -0.31275135 -0.023171693 0.06344178 0.05317521
0000a0 d7 ff 98 3e d0 99 ad bd 54 5e b7 3d 82 f8 97 be
       0.2988269 -0.08476603 0.089535385 -0.29681784
0000b0 a1 05 8d 3e b0 96 f2 3d 72 3a 7c 3e a2 5f 5f 3e
       0.27543357 0.118451476 0.2463167 0.21813825
0000c0 a0 89 f9 3d c8 4b 0e bd 1a 6d 87 be 54 ec f4 3d
       0.12184453 -0.03474024 -0.26450425 0.119591385
0000d0 a4 1c a2 be 00 9a 61 be 50 f2 61 be b0 3d ad 3c
       -0.31662476 -0.22031403 -0.22065091 0.021147579
0000e0 3f 80 a6 be 32 5a 40 3e 12 74 71 3e 83 bb 8a 3e
       -0.3251972 0.18784407 0.23579434 0.27096185
0000f0 b1 53 8e 3e 92 9f 99 be b2 32 34 3e e4 b7 ce 3d
       0.27798226 -0.30004555 0.17597464 0.10093668
000100 a2 9b 38 3e 58 39 7d bd ba ff 34 3e d8 d8 4c bd
       0.18028119 -0.061822265 0.17675677 -0.050011486
000110 b6 ec 02 be e6 69 6e 3e 5b a4 9c 3e 2c 55 da 3d
       -0.1278561 0.23282585 0.30594143 0.106607765
000120 22 d1 41 3e ac 12 f8 3d 9a c8 88 be 00 8b b3 3d
       0.18927434 0.121129364 -0.26715547 0.087667465
000130 70 80 e1 3c 30 33 8e bc 18 aa 06 3d 3e 63 66 3e
       0.027527064 -0.017358392 0.032877058 0.22498795
000140 ba 0c 47 3e 0b d2 3a be 12 31 18 3e c0 52 cb bc
       0.19438449 -0.18244188 0.14862469 -0.024819732
000150 fc 60 c0 3d ba 8f 6a 3e c0 69 95 bb 62 9c 53 3e
       0.09393498 0.2290639 -0.0045597255 0.20665124
000160 22 13 52 3e 90 4a e8 3c d0 f3 3e be d5 b9 87 3e
       0.20515111 0.028355867 -0.18647695 0.26508966
000170 15 a7 94 3e 13 db 0e be 3c b5 c4 bd 7c 9d d7 bd
       0.29033723 -0.13950758 -0.0960488 -0.10528085
000180 af 18 9c be c0 27 bc 3b 60 fd ad bd f8 b7 23 3d
       -0.30487582 0.0057420433 -0.08495593 0.03997037
000190 d3 aa 61 be 7c 40 87 bd 40 0e c0 3c e2 41 9a be
       -0.2203782 -0.06604096 0.023444295 -0.3012839
0001a0 8f 8e 93 be a6 90 14 3e 0e 59 99 be da a6 11 3e
       -0.288197 0.14508304 -0.29950756 0.14223805
0001b0 c7 8b a4 be 10 c0 67 be f0 6c 48 be 3e a9 1a be
       -0.32137892 -0.2263186 -0.19572806 -0.15103623
0001c0 23 9c 66 be 63 50 0a be 78 8a 59 be 30 ac 9e 3d
       -0.22520499 -0.13507228 -0.21244228 0.07747686
0001d0 7c 9d 90 be 49 a2 90 3e 68 cc 69 be 8f 9a 92 3e
       -0.2824515 0.28248814 -0.22831881 0.28633544
0001e0 5e dc 65 3e 56 d6 4f be 57 d6 a0 be e8 18 6e be
       0.22447345 -0.20296606 -0.31413528 -0.23251688
0001f0 bf 9c 99 be 77 ac 99 3e 50 45 a0 bd 60 09 f4 bd
       -0.300024 0.30014393 -0.0782572 -0.11915851
000200 1e 02 36 3e 72 c8 28 3e e0 28 15 bd a6 03 41 3e
       0.17774245 0.16482714 -0.036415935 0.18849048
000210 fc fb 96 bd 78 d8 2a bd 1c 1e bb 3d 20 04 4e be
       -0.07372281 -0.041710347 0.09136602 -0.20118761
000220 1a 05 64 3e e6 ee 38 be a2 da 32 3e b8 0a 62 be
       0.22267571 -0.18059883 0.17466214 -0.22074401
000230 ee bc 95 be 48 e4 5d 3d 60 18 37 bd fa 6d 51 3e
       -0.29245704 0.054172784 -0.04470098 0.20452109

conv1.bias f4 [16]
000000 60 fc cb 3d 06 79 9b be c2 80 2c 3e 55 07 9d 3e
       0.09960246 -0.3036577 0.16845992 0.30669656
000010 41 46 94 3e cb e4 71 be 5d da 89 3e 78 90 07 3d
       0.2895985 -0.23622434 0.2692441 0.03309676
000020 a8 02 64 bd cb af 48 be 46 26 ba bd 60 7f 0e be
       -0.055666596 -0.1959831 -0.09089331 -0.13915777
000030 26 26 12 3e c0 38 6d 3d a3 65 a1 3e 0b 33 4f be
       0.14272365 0.05791545 0.31522855 -0.20234315

conv2.weight f4 [32, 16, 3, 3]
000000 90 61 f7 bb 98 7a 25 3d b6 e1 ba bc bb 6a a7 bd
       -0.007549472 0.040400118 -0.022812705 -0.08174654
000010 9c d2 c5 3c 18 d5 46 bd 1e f7 79 bd 20 e3 74 bd
       0.024148278 -0.048543066 -0.061026685 -0.059786916
000020 7e 25 4d 3d 92 60 4f 3d e6 21 45 3d 88 7f 9a bd
       0.050084583 0.050629206 0.04812803 -0.07543856
000030 40 dc 48 3c e6 47 4c 3d f6 e8 52 3d a4 16 e1 3c
       0.012259543 0.049873255 0.0514917 0.027476616
000040 83 0e 5d bd 40 81 c2 3a d2 b9 a9 bd c0 d9 c3 3a
       -0.053968918 0.0014839545 -0.082873955 0.0014942214
000050 46 5f 25 bd b4 04 ec 3c 10 36 c1 bb e4 69 f4 3c
       -0.040374063 0.028810836 -0.0058963373 0.029835649
000060 31 f1 9d 3d 20 9b 6d 3b d4 ee fb 3c b9 b5 96 3d
       0.07712019 0.0036255792 0.03075353 0.073588796
000070 10 18 f6 3c ee db 61 bd 7c 71 e1 bc 00 53 8a b9
       0.03004077 -0.055141382 -0.027519934 -0.0002638325
000080 9c 62 d1 bc 90 36 9d bb 80 bc 44 bb e6 40 b9 bc
       -0.025559716 -0.004797764 -0.0030019581 -0.022613954
000090 f0 6a cd bb 4b de 75 bd e6 fb 61 bd 4c c2 a7 3c
       -0.0062688515 -0.06002645 -0.05517187 0.02047839
0000a0 60 fe 21 3c 48 62 57 3c 9e b0 40 3d 40 51 ef bc
       0.009887308 0.013145991 0.047043435 -0.029213548
0000b0 e6 e3 77 3d e0 54 58 bb 36 38 43 3d 26 b9 77 bd
       0.060520075 -0.0033009574 0.04766103 -0.060479306
0000c0 9f 91 a6 3d ce e8 5e 3d 36 82 bb bc 4e 8f 26 bd
       0.08133244 0.05442124 -0.022889238 -0.04066401
0000d0 1f 91 a3 bd ea 7e 6e 3d 72 f1 0b 3d bc e7 a2 bd
       -0.07986664 0.058226503 0.034165807 -0.07954356
0000e0 22 73 74 3d 28 1b 10 bd da b5 16 3d 7e fe 08 bd
       0.05968011 -0.03518215 0.03679452 -0.033445828
0000f0 9e d0 68 3d 7e 2d 62 bd 98 a3 7d bd 90 68 ae bc
       0.056839578 -0.055219166 -0.061923593 -0.021290094
000100 9c 64 85 3c 80 72 b6 3b af f2 8e 3d e0 32 6b 3b
       0.016283326 0.0055678487 0.06979882 0.0035888478
000110 a1 a0 a4 3d 72 f8 47 3d 74 2d 99 bd 26 2d 0e bd
       0.0803845 0.04882092 -0.074793726 -0.034711026
000120 00 65 a7 bd 5d 91 a7 3d 8e 4a 56 bd 30 5f b9 3b
       -0.08173561 0.08182023 -0.052317195 0.005657099
000130 a0 47 6e bc cc 19 ca bc 7a de 4d 3d 40 c4 87 bc
       -0.014543444 -0.024670504 0.050261 -0.016573071
000140 73 91 99 bd be 41 74 bd 3c b6 ec 3c 34 22 ec 3c
       -0.07498445 -0.05963301 0.02889549 0.028824903
000150 e6 0c 3d bd 98 b3 7c 3c 40 b9 cc bb d1 d5 8e 3d
       -0.04615488 0.015423678 -0.0062476695 0.06974376
000160 88 28 75 bd 1d 5d a3 3d cb 82 85 bd b0 0a e2 bc
       -0.059853107 0.07976744 -0.065190874 -0.027592987
000170 43 2d 16 bd 8b f8 a4 bd 1f 20 a2 3d 3a 4c 30 3d
       -0.03666426 -0.08055218 0.07916283 0.043041445
000180 30 d8 c7 bb 7e 44 68 3d 6b 53 46 bd 4e cb 55 3d
       -0.0060987696 0.056705944 -0.048419397 0.05219584
000190 58 a2 0d 3c 9e f0 1a bd 26 aa 81 bd 7e b0 05 bd
       0.008644663 -0.037827127 -0.06331281 -0.03263902
0001a0 6b 91 22 bd f2 f6 4d 3d 20 6b 21 bd e6 47 f1 bc
       -0.039689463 0.050284334 -0.039408803 -0.02945323
0001b0 4c 01 8e bd 50 97 bd bc b2 55 62 3d 24 1c aa bd
       -0.06933841 -0.02314344 0.055257507 -0.08306149
0001c0 94 06 e4 3c 48 8b 41 bd 2a c1 20 3d a6 01 03 3d
       0.027835168 -0.04725197 0.039246716 0.031983994
0001d0 23 8b 81 3d 28 26 13 bc b2 f3 63 3d 5a f6 22 3d
       0.06325366 -0.008981265 0.055652328 0.03978572
0001e0 2a d5 40 3d 28 10 66 bd e6 96 78 3d db f6 a6 3d
       0.04707829 -0.05616775 0.060690783 0.08152553
0001f0 40 ae 64 3c d0 d3 45 bd a0 16 61 3c 7c 19 f1 bc
       0.01395756 -0.048297703 0.013738304 -0.029431097
000200 70 91 8a bb ed d4 84 3d de 6e 49 bd c0 bb 8e 3c
       -0.0042287633 0.06485925 -0.049177997 0.01742351
000210 1a 73 38 3d 2e 88 07 bd db 1b 0f bd d0 33 a5 3c
       0.045031644 -0.033088855 -0.034938674 0.020166308
000220 1e 43 3e 3d fe eb 77 3d cc 15 f8 bc 20 23 51 bb
       0.046450727 0.060527794 -0.030283831 -0.0031911805
000230 cc 8f cf 3c fe d3 4f 3d d6 03 6f 3d b8 33 22 bc
       0.025337122 0.05073928 0.058353268 -0.009900026
000240 48 93 37 3c c0 99 98 bd e8 8f 40 3c ad a4 84 3d
       0.011204548 -0.074512005 0.01175306 0.06476722
000250 30 be b0 bb b0 b6 90 bd a0 d8 b4 3c 20 20 1d bb
       -0.005393766 -0.07066095 0.022075951 -0.0023975447
000260 62 33 a9 bd 5b 79 09 bd a0 4c 1a 3c 1a 7e 3b 3d
       -0.082617536 -0.033563 0.009417683 0.045774557
000270 44 8f a3 3c c6 1d 33 3d 96 1f 6d 3d 1c 61 93 3c
       0.019965775 0.043729566 0.05789145 0.017990641
000280 20 b1 2f bd 80 22 7e bc 1b 46 4d bd 30 fb 19 3d
       -0.04289353 -0.015511155 -0.050115686 0.037593067
000290 cc f4 90 bd 8e 9a 52 3d b0 2c f3 3b 9c ec a9 3c
       -0.07077941 0.051416926 0.0074210986 0.020742707
0002a0 bf e2 94 3d 0c 86 87 bc 46 71 c2 bc 80 b8 a3 3c
       0.07269811 -0.01654341 -0.023735654 0.019985437
0002b0 98 97 1c 3c 3a 65 78 3d 40 ac c3 bb 7f 58 9c bd
       0.009557627 0.060643412 -0.0059714615 -0.07634067
0002c0 25 21 a6 3d 80 9f 1e 3b 20 a9 a8 bd 80 51 62 3a
       0.081117906 0.0024203956 -0.08235383 0.000863336
0002d0 ac 40 b7 3c c6 02 63 bd 00 03 48 3b 3b 23 40 bd
       0.022369705 -0.055422567 0.0030519366 -0.0469086
0002e0 19 2d 81 3d 02 d0 7e 3d 20 e5 5f 3b 88 cf 03 bd
       0.0630743 0.06221009 0.0034163669 -0.03218034
0002f0 58 89 66 bd ae cb 3f 3d 21 4d a9 3d a0 71 4f bb
       -0.056283325 0.046825103 0.08266664 -0.003165342
000300 06 cf 57 3d 0e 7d 52 bd 4e fa 28 bd f8 b8 6c bc
       0.052687667 -0.051388793 -0.041254334 -0.014448397
000310 69 18 82 3d 4b e7 96 bd ac 6a 8c bd 50 3d 88 3c
       0.06352312 -0.073683344 -0.068562835 0.016630799
000320 f0 4d 91 3b ca c6 47 3d 8e 28 8b bd 78 2b 7d bd
       0.0044343397 0.048773564 -0.067948446 -0.061809033
000330 a2 9d 87 bd ea 5e 77 3d 60 fc 80 3c 50 61 a0 3b
       -0.06621863 0.06039325 0.015745342 0.004894413
000340 e6 a8 51 bd ea 0c 7a 3d 8a 44 7c 3d f6 c0 33 bd
       -0.051186465 0.061047472 0.0615888 -0.043885194
000350 b0 a9 ce 3c 1f 31 83 bd 7c a0 de bc 00 9f 6e bb
       0.025227398 -0.064058535 -0.027176134 -0.003641069
000360 b0 39 9d bc 5c 33 c0 3c 62 e3 6e 3d fa 71 36 3d
       -0.019192547 0.02346199 0.058322318 0.04454229
000370 4a 82 33 3d ff 1b a8 3d dc 8c d0 bc 9f 47 93 3d
       0.043825425 0.08208465 -0.025457792 0.07191395
000380 b1 6e a6 3d 0f fd 85 bd 6e 6d 1d 3d de 6c 03 bd
       0.081265815 -0.06542408 0.03843444 -0.032086246
000390 52 41 2c 3d c0 fc e7 ba 26 be 80 bd 10 94 96 bd
       0.04205448 -0.0017699227 -0.06286268 -0.073524594
0003a0 f0 7c ce bc 8e bb 93 bd c0 64 25 3d f6 7b 7a bd
       -0.02520606 -0.072135076 0.040379286 -0.061153375
0003b0 71 1b 8f 3d eb ce 08 bd 08 05 4b bd 06 d5 56 3d
       0.06987656 -0.033400457 -0.049565345 0.05244925
0003c0 38 2a 66 bd 8c 7e 8f 3c dc 7a b2 bc bc de a8 bd
       -0.056192607 0.017516397 -0.0217871 -0.08245608
0003d0 e2 f1 99 bd dd 13 9f 3d 43 93 8b bd 98 c4 29 bd
       -0.075168386 0.077674605 -0.06815197 -0.041447252
0003e0 5c 23 ed 3c 37 33 9e 3d 00 b4 af ba be 76 19 3d
       0.028947525 0.07724612 -0.0013405085 0.037466757
0003f0 82 4b 43 3d fe 8d 2c bd 5c b2 8e bd ff 6b 96 3d
       0.04767943 -0.0421276 -0.06967613 0.07344817

conv2.bias f4 [32]
000000 70 40 ed 3b 0a 3c 54 3d 80 ab 7a bb 9e 9b 64 3d
       0.0072403476 0.05181507 -0.0038249195 0.05581247
000010 e8 2d 53 3c 3e a4 0d 3d 28 69 0a bd 7a 8a 47 3d
       0.012889363 0.03458046 -0.03379169 0.048716046
000020 25 cc 88 3d da 38 4b 3d 22 95 35 3d 23 62 17 bd
       0.066795625 0.049614765 0.044331677 -0.036958825
000030 0c e2 c8 bc a6 48 22 bd d8 6d 45 3c 48 e3 6c bd
       -0.02452185 -0.039620064 0.012050115 -0.05783394
000040 6e ec 90 bd f3 06 0d bd 7e 88 7a 3d 26 bd 6b bd
       -0.070763454 -0.034430455 0.061165325 -0.057553433
000050 10 1d a3 bd 35 82 8c 3d 90 b2 8c 3b 08 38 52 bd
       -0.079645276 0.068607725 0.0042937472 -0.051322967
000060 34 cf b6 3c eb 6e 95 3d 04 7d e4 3c c8 d3 5b 3c
       0.022315599 0.072965465 0.027891643 0.013417192
000070 00 de a5 3c f7 31 88 3d 38 e9 36 bc 86 f8 6f bd
       0.02024746 0.06650155 -0.011164002 -0.05858662

fc1.weight f4 [100, 672]
000000 a0 f2 e7 bb 38 e5 a0 bc 49 5b 19 3d 1a ef bd bc
       -0.0070784837 -0.01964055 0.037440572 -0.023185302
000010 18 f3 05 bd 80 9d 29 3a c2 f2 d2 3c 78 50 a8 3b
       -0.032702535 0.00064703077 0.025750522 0.0051365457
000020 f5 0e 15 3d fe b7 ec 3c 7c 5a 50 bc 63 3d 0c 3d
       0.036391217 0.028896328 -0.012716886 0.03423823
000030 62 28 f6 bc 80 38 fd bc 55 d2 04 bd da 4a d8 bc
       -0.030048553 -0.03091073 -0.03242715 -0.02640288
000040 fc 9c 2e 3c a0 64 a1 bb fa 23 10 bd 02 49 97 3c
       0.010657545 -0.0049253255 -0.03519056 0.01846743
000050 b0 32 12 bc 1d 23 04 bd c0 cf 85 3a de 53 b4 3c
       -0.008923218 -0.03226005 0.0010209009 0.022012647
000060 ba 00 dd bc 00 cb 67 39 80 0b 24 3b 31 c5 12 bd
       -0.026977886 0.000221055 0.0025031269 -0.035832588
000070 b0 10 17 3b 26 67 bc bc 48 d5 ac bb f9 01 8a bc
       0.0023050718 -0.022998404 -0.0052744485 -0.016846644
000080 e8 a7 fc 3b 5e 96 1b bd 5a 0e 02 bd 8a 12 af 3c
       0.0077104457 -0.0379852 -0.031751968 0.021371145
000090 b6 c7 b9 3c f4 4a 8f bc b6 11 82 3c c6 8b ff bc
       0.022678237 -0.017491795 0.015877586 -0.031194579
0000a0 08 19 5e 3c b3 06 14 bd 7e 57 b7 3c 8a fe ec 3c
       0.013555773 -0.0361392 0.022380587 0.028929967
0000b0 68 02 0e 3c f5 a6 b2 bc 8a f2 d9 3c 36 29 0d bc
       0.008667566 -0.021808127 0.02660491 -0.0086157825
0000c0 e5 dd 0e 3d 6a 4a 96 bc c0 59 08 3c 93 7c 1b 3d
       0.034879584 -0.01834603 0.008322179 0.0379606
0000d0 de 43 b8 bc ec 03 d7 bc 74 12 7a 3c e0 dc e3 ba
       -0.0224933 -0.026246987 0.015263189 -0.0017384551
0000e0 55 2c bc bc 84 c9 bf bc 60 a0 91 3b 0c 5b ad 3c
       -0.022970358 -0.02341152 0.004444167 0.021161579
0000f0 3f 34 14 bd de 14 a2 3c 17 32 0c 3d f8 ab a1 bc
       -0.03618264 0.01978534 0.034227457 -0.019735321
000100 5c 35 85 3c c8 ed c0 3c 5e 13 cc 3c 30 76 50 bb
       0.016260795 0.023550883 0.024911579 -0.0031808726
000110 52 02 ed 3c f0 8d 10 bb a0 37 6e 3b 30 c8 6e 3c
       0.02893177 -0.0022057258 0.0036349073 0.014574096
000120 d4 60 78 3c fc 8f 12 3c bc d5 88 bc b4 ef a0 3c
       0.015159804 0.008945461 -0.016703479 0.01964555
000130 00 95 17 bd bf 3c 10 3d 24 79 f7 bc 9b 5d a7 bc
       -0.03700733 0.035214182 -0.030209132 -0.020430377
000140 00 b6 d2 39 0e 7a d6 bc cf 91 0b bd 56 3a 57 bc
       0.00040189922 -0.026181247 -0.0340746 -0.013136467
000150 47 cf 0b 3d 10 b7 83 bb 2f d3 c3 bc ac 32 27 bc
       0.034133222 -0.0040196255 -0.023904411 -0.010204952
000160 03 63 ac bc e4 e0 89 3c 60 f5 f5 bb c0 a1 d8 ba
       -0.021043306 0.016830869 -0.0075060576 -0.0016527697
000170 40 40 a8 3a f2 bc e3 3c 80 00 0f bd 4a a9 de 3c
       0.0012836531 0.027800057 -0.034912586 0.027180333
000180 10 2b aa bb bc e7 16 bd c9 c3 0a bd a6 f9 60 bc
       -0.0051931217 -0.036842093 -0.03387812 -0.013731396
000190 34 2d 04 bc 5f bc 07 3d 70 64 dd bb 82 f0 dc 3c
       -0.008067418 0.03313863 -0.006756358 0.026970152
0001a0 7c 49 d7 bc a8 2f a0 3b 71 6a 0a 3d 92 3f f1 bc
       -0.026280157 0.0048884936 0.033792917 -0.029449258
0001b0 12 0e e0 3c 3b 2c 12 3d c0 d0 d4 3a 84 83 9e bc
       0.02735046 0.035686713 0.0016236529 -0.01934982
0001c0 68 50 36 bc 80 4d 3c 3a aa 14 67 bc f5 e8 f1 bc
       -0.011127569 0.0007183179 -0.014104048 -0.029530028
0001d0 53 95 15 bd d8 92 25 bc 78 76 9b 3b 60 e3 c6 bb
       -0.03651936 -0.010105811 0.004744347 -0.0060695857
0001e0 f1 b9 a2 bc ee ff cb 3c aa 02 cf 3c 33 f5 8c bc
       -0.019864054 0.02490231 0.025269825 -0.017206764
0001f0 be 29 05 bc 24 0a d1 bc 10 a7 43 3c ea 85 ac bc
       -0.008127628 -0.02551753 0.011941686 -0.021059949
000200 68 64 0d bc 64 a3 40 3c 58 90 e7 bc 4c 56 49 bc
       -0.008629896 0.011757705 -0.02826707 -0.012288641
000210 e6 83 b1 3c 64 16 ad 3c f0 34 40 bb 32 d5 88 3c
       0.02166934 0.02112884 -0.0029328428 0.016703222
000220 70 30 1a 3b 94 6b 57 3c 00 cd 5e ba 3b 75 01 3d
       0.0023527406 0.013148207 -0.00084991753 0.03160594
000230 40 02 9f ba b0 90 b0 bb 93 3d 04 3d 30 d7 48 bc
       -0.0012131408 -0.005388342 0.032285284 -0.012258336
000240 d0 ee b4 3b a8 63 d5 3b 52 67 b7 3c 70 84 75 bb
       0.0055216327 0.006512124 0.022388134 -0.0037462972
000250 f6 79 5b bc 00 bc 75 b8 c0 0c 10 3c 40 53 c0 3a
       -0.013395777 -5.858764e-05 0.008792102 0.0014673248
000260 17 48 8d bc 78 67 cd 3b 4a 53 f0 3c 56 7c cd 3c
       -0.01724629 0.006268438 0.02933659 0.025083702
000270 d0 3b 96 bb c3 6a ae bc e4 2f 3b bc b3 67 1b 3d
       -0.004584767 -0.021291142 -0.011424992 0.037940692
000280 ab d9 0d 3d 18 61 43 3c a0 22 1c bd 14 da 6a 3c
       0.034631412 0.011925004 -0.03811896 0.01433422
000290 aa b9 ea 3c 23 3b 1c bd 37 31 8b bc 1d 0b 92 bc
       0.028652985 -0.038142335 -0.01699124 -0.017827565
0002a0 19 41 1b 3d ee a7 c6 3c d6 5f 4c bc d4 03 0a bd
       0.03790388 0.024249997 -0.012474021 -0.033695057
0002b0 38 6b 5d 3c b8 ac bb 3b ea 00 a0 bc 76 48 9d 3c
       0.0135143325 0.005727377 -0.019531686 0.019199591
0002c0 1e eb c4 bc aa ff ba 3c c0 b6 29 3c 20 e2 b4 3c
       -0.024037894 0.022826988 0.010358512 0.022080481
0002d0 de c1 45 bc 93 1b 0e 3d 12 23 bc 3c 0e b0 a3 bc
       -0.012070147 0.034694266 0.022965942 -0.01998141
0002e0 28 d0 e6 bc 60 ad 6a 3b 54 ee bb 3c 13 06 0e 3d
       -0.028175429 0.0035808906 0.022940792 0.03467376
0002f0 19 db b5 bc 3b a8 1b 3d e8 f7 a1 bc 35 cc bd bc
       -0.0221992 0.038002234 -0.019771531 -0.023168663
000300 d0 42 ac 3b f8 ec c9 3b 98 67 89 3c aa 6b d9 3c
       0.005256988 0.006162282 0.01677303 0.026540596
000310 e0 da 19 bc b0 75 62 3b d0 d9 b3 bb c4 49 2f bc
       -0.009390563 0.003455501 -0.0054886118 -0.010698739
000320 d0 78 fc bb e6 95 c4 3c ca c3 00 bc 36 eb e4 3c
       -0.0077048317 0.023997258 -0.00785918 0.027944189
000330 40 9f 62 bc 88 37 51 3c 40 5c 89 bc e0 01 d1 ba
       -0.0138319135 0.012769587 -0.016767621 -0.0015945993
000340 90 d1 f1 bc 20 58 f7 3b d4 3a b9 bc 2c b8 de bc
       -0.029518872 0.007548347 -0.02261106 -0.02718743
000350 68 47 03 bc 08 00 4c bc 72 65 d8 3c 7e 58 e9 bc
       -0.00801263 -0.012451179 0.02641556 -0.02848458
000360 19 cf 03 3d ee 5a d3 3c a8 56 92 bc 44 7c 8a 3c
       0.032179926 0.025800195 -0.017863587 0.016904958
000370 c2 73 af 3c a3 22 81 bc 64 fd 35 3c 2c 76 fc bc
       0.021417502 -0.015763586 0.011107776 -0.030818067
000380 1c 64 56 3c 57 5d fc bc 02 3b f6 3c da 6e d6 3c
       0.013085391 -0.030806227 0.030057434 0.026175905
000390 46 c9 ae 3c 80 31 e9 39 ee fb 88 3c 67 4c e4 bc
       0.021336209 0.00044478104 0.016721692 -0.027868463
0003a0 ac 68 8a bc e0 5f bf 3c 6c 4c 9c 3c bf 5b 02 3d
       -0.016895615 0.023361146 0.01907941 0.031825777
0003b0 48 8d b9 3b 3a 23 b5 bc 90 19 50 bb 94 b0 f0 bc
       0.005662594 -0.022111524 -0.0031753518 -0.029381074
0003c0 58 bb c0 3c 38 9f 6a 3c 40 64 cd 3b f8 20 10 bd
       0.023526832 0.014320187 0.0062680542 -0.03518769
0003d0 86 ce e4 3c 16 1d d0 3c 2c 2f ac 3c 50 a8 5a 3b
       0.02793051 0.025404494 0.021018587 0.0033364482
0003e0 7a a3 b8 bc bc df be 3c 78 a7 57 3c 7c be 0b 3c
       -0.02253889 0.023300044 0.013162486 0.008529302
0003f0 38 b8 1a bd e6 02 b7 bc 3e 9b de 3c f8 4d 9b 3c
       -0.03777334 -0.02234025 0.027173635 0.018958077

fc1.bias f4 [100]
000000 e0 f4 bc 3c 39 ac 17 bd 88 6b bc bc ad 65 06 3d
       0.023065984 -0.03702948 -0.023000494 0.03281181
000010 f9 f7 88 bc ac fd 44 3c 0e b7 dc 3c 14 4f 39 bc
       -0.016719805 0.012023371 0.026942756 -0.011310358
000020 e2 41 1b bc 48 65 a9 3c d8 bc 53 bc be 7c d2 3c
       -0.009476157 0.020678177 -0.012923442 0.025694247
000030 dc 9d 3c 3c 9f 9a 0d 3d 80 ce b6 3c d8 a2 e0 bb
       0.011512246 0.034571286 0.022315264 -0.00685535
000040 72 54 c7 3c 5c e2 8f 3c 50 ba 53 3c 07 85 06 3d
       0.024332259 0.017563991 0.012922838 0.03284171
000050 40 c1 f6 bc ad 56 11 3d ea 90 1c bc 50 85 83 3b
       -0.030121446 0.03548305 -0.009556035 0.004013695
000060 00 49 c4 39 70 e5 54 3b 99 19 95 bc ef 2f 00 3d
       0.00037438422 0.0032485388 -0.018200682 0.031295713
000070 ac 72 f3 bc 54 3c 14 bd fe 07 ff 3c e0 e4 a9 3a
       -0.029717766 -0.036190346 0.03113174 0.0012961887
000080 e0 9b c9 3a 76 b5 a0 3c 0c 71 29 bc 93 d2 14 3d
       0.0015381537 0.019617777 -0.010341894 0.03633363
000090 77 6a 18 bd 78 ed a8 bb e0 1a 64 3c c6 08 f4 3c
       -0.037210908 -0.0051552616 0.013922423 0.02978934
0000a0 a0 e8 56 3c 80 a6 f0 39 2f 24 19 3d fe ca e1 bc
       0.013116986 0.0004590042 0.037388023 -0.027562615
0000b0 ca 7c e4 bc c0 4e 4c 3c 78 b9 05 3c 85 0e 1d 3d
       -0.027891535 0.012469947 0.008161895 0.038343925
0000c0 4c d1 81 3c a6 43 ae bc 20 33 67 bc 03 85 95 bc
       0.01584687 -0.021272492 -0.01411131 -0.018251901
0000d0 b8 c9 65 3c 70 4e c0 bb 5e 67 c2 bc e2 3b 5e bc
       0.014025144 -0.0058687255 -0.02373093 -0.013564082
0000e0 8c 7e 88 3c 14 cb fb bc 00 fe fa bb d3 91 19 3d
       0.016661905 -0.030736484 -0.0076596737 0.037492584
0000f0 d8 f6 6f bc 28 fd 6b bc d8 2d 9e bb 14 39 3e 3c
       -0.0146462545 -0.014403619 -0.0048272423 0.011610288
000100 74 7c 3c bc 8c b9 d7 bc 9a 72 75 bc 62 42 d8 bc
       -0.011504281 -0.026333593 -0.014980936 -0.026398841
000110 b7 8e 12 bd 96 d1 c9 bc 60 04 21 bb c0 7f 08 ba
       -0.035780635 -0.024636071 -0.0024569258 -0.00052070245
000120 90 e6 c0 bc d0 a5 78 bb 03 53 bd bc 3f 48 15 bd
       -0.02354744 -0.0037940629 -0.023110872 -0.036445852
000130 52 5a be 3c 69 34 02 bd 58 b6 b1 bb a3 87 16 bd
       0.023236427 -0.031788263 -0.0054233484 -0.036750447
000140 d6 24 fa 3c 1a 58 cb 3c de e1 b8 3c 1e 99 f1 bc
       0.030535143 0.024822284 0.02256864 -0.029491957
000150 fc f5 05 3c 1d 9d 03 bd c4 35 23 3c f6 86 a5 3c
       0.008176323 -0.032132257 0.009961549 0.020205956
000160 bc 15 e9 bc d6 d6 07 bd 80 9e ea bb 1d 7a 17 3d
       -0.028452747 -0.033163868 -0.007160008 0.03698169
000170 12 b3 a0 bc 00 00 af b6 d9 e7 00 3d 3b 80 18 3d
       -0.019616637 -5.2154064e-06 0.031471107 0.037231665
000180 9a 2c f9 3c 7e bb c1 bc f7 00 a8 bc f8 23 61 3c
       0.030416775 -0.023648974 -0.020508273 0.013741486

fc2.weight f4 [10, 100]
000000 85 9e b7 3d d2 02 c2 bd da ec 1f bd 28 3b e4 bc
       0.08965782 -0.09473194 -0.03904424 -0.02786024
000010 72 06 40 3d 32 f7 00 3d 00 c4 ff 3b 82 2c 5d 3d
       0.046881147 0.031485744 0.0078053474 0.053997524
000020 bd 0d b5 3d 32 d9 57 3d 0f f9 c5 bd d0 cd 65 bd
       0.08840511 0.052697368 -0.09666645 -0.05610448
000030 ac ca ca bc 23 5c 7a bd 98 9a 32 3c 20 bc 91 bb
       -0.024754845 -0.061123025 0.010901116 -0.004447475
000040 c5 39 c1 bd 50 92 21 bd 7b eb c2 bd cc ce 0e bd
       -0.09434847 -0.039446175 -0.095175706 -0.034865186
000050 a1 bc c8 3d 9e af 30 3d c0 12 4a bc af 90 bc 3d
       0.09801603 0.04313623 -0.012333572 0.09207284
000060 9b 7e 88 3d 53 83 26 bd 73 4a 43 bd 6d 9e 38 bd
       0.06664773 -0.040652584 -0.047678422 -0.04507296
000070 2c a1 ae 3c 98 ea b9 bc a0 ae e6 3b f2 82 7f 3d
       0.021317087 -0.02269487 0.00703986 0.06238074
000080 b3 3e 98 bd ad 49 c1 3d 7a b2 6d 3d d8 f2 02 bc
       -0.07433834 0.09437881 0.058031537 -0.007992469
000090 7b 48 b7 3d 5d 5a 32 bd 2d 53 a1 3d 4c 91 18 bd
       0.089493714 -0.04354321 0.07877193 -0.03724794
0000a0 de 5f 05 3d 15 c2 bd bd 5b 96 c7 bd 81 d3 92 3d
       0.03256213 -0.09265534 -0.09745475 0.071692474
0000b0 20 f3 f3 3b 02 8c 52 3d 60 81 23 bd 71 52 a8 3d
       0.0074447542 0.051403053 -0.039918303 0.082188495
0000c0 b5 0d 9d bd de 44 25 3d 20 5e ab bb a0 ac d2 3b
       -0.0766863 0.04034888 -0.0052297264 0.00642927
0000d0 e6 8e 06 3d e1 f8 8f 3d 98 5d 9e bd 54 0d 19 bd
       0.032851122 0.07029892 -0.07732695 -0.037366226
0000e0 b2 3f 71 3d ba a5 7d 3d fe fe a6 bd 22 b1 7b 3d
       0.058898635 0.061925627 -0.08154105 0.061448224
0000f0 a5 ab 85 bd fe 59 ac bd 09 2a 82 3d ad a2 b0 3d
       -0.06526879 -0.08415602 0.06355674 0.08624778
000100 cc 6b d0 3c 67 9e 8d 3d 28 f6 a5 bc 80 a0 19 3c
       0.025442027 0.069149785 -0.020258978 0.009376645
000110 ec 82 eb 3c bc f2 fb 3c 17 f1 b0 3d 6c 99 ca 3c
       0.028748952 0.030755393 0.08639734 0.02473136
000120 2e 7e 6b 3d 19 4e b7 3d e0 2e 81 bb f0 53 63 bd
       0.05749338 0.08950443 -0.0039423555 -0.05549997
000130 ee a2 4b 3d e8 78 06 bc 54 30 a0 bc 29 a1 95 3d
       0.04971593 -0.008207537 -0.019554295 0.073061295
000140 bf a1 c5 3d 7b d8 ae 3d 03 fb 32 bd a0 76 77 bd
       0.09649991 0.08537384 -0.043696415 -0.060415864
000150 7d 60 3b bd 96 ed 58 3d 4d 19 67 bd 6d d9 97 3d
       -0.045746315 0.052960955 -0.056420613 0.074145176
000160 65 3b 9d 3d d4 c1 b7 bc d2 56 55 3d d8 62 ad bc
       0.07677344 -0.022431292 0.05208475 -0.021165296
000170 a4 3f e5 3c 1a e7 55 bd 17 a7 7d bd a0 e6 13 bb
       0.027984448 -0.05222235 -0.061926927 -0.0022567883
000180 ec c4 89 bd 40 f5 b0 3c d3 84 ae bd c7 4b bc 3d
       -0.06727013 0.02160132 -0.08521428 0.09194141
000190 10 d6 be bd 00 c4 13 bd cc 10 fa 3c cc 4d 8b bc
       -0.09318173 -0.036075592 0.030525587 -0.01700487
0001a0 b6 4a a6 bd 2a ad 2c 3d a2 ed a2 bd 26 b5 8a bd
       -0.08119719 0.04215733 -0.07955481 -0.067728326
0001b0 4a d1 61 3d 22 98 4b 3d a0 be d5 bb 5a fa b4 bd
       0.055131234 0.049705632 -0.0065229684 -0.08836813
0001c0 cb 5a 9d 3d 91 ce c1 3d 80 9a 1d 3a 39 1c a5 3d
       0.07683333 0.094632275 0.0006012097 0.08062024
0001d0 d6 5c 9c bd 28 7c c9 bd 80 15 8f ba 92 f2 7e 3d
       -0.076348945 -0.09838134 -0.0010916442 0.06224305
0001e0 96 0f 7f 3d 63 46 86 3d d0 ed bc 3b c0 a2 d0 bc
       0.062270723 0.06556394 0.005765654 -0.02546823
0001f0 f3 3d 65 bd 9a a3 4f 3d cc 49 e5 3c 9e 12 1a 3d
       -0.055967283 0.050693132 0.02798929 0.03761541
000200 ff d4 99 3d ea 9f 78 bd 28 b2 82 bc 7e 46 23 3d
       0.07511329 -0.06069938 -0.015954092 0.03986215
000210 23 1f c9 bd 80 d5 04 3c 40 f7 1b 3c 1a 97 67 bd
       -0.09820392 0.008107543 0.009519398 -0.056540586
000220 e1 76 c6 3d 70 0b ac bd 8c c1 d2 3c 58 4f c3 3c
       0.09690643 -0.08400619 0.025727056 0.023841545
000230 2a 50 33 3d d8 80 9d 3c 10 4e 40 bc c0 82 5c 3c
       0.043777622 0.019226477 -0.011737362 0.013458908
000240 bc ca f9 3c 68 7f 13 bc 50 bf c8 3b c2 71 60 3d
       0.03049218 -0.009002544 0.006126322 0.054795988
000250 a2 0a 16 3d 60 12 88 bd 1f db 9c 3d 1e 1d 51 3d
       0.036631234 -0.0664413 0.076589815 0.05105316
000260 40 35 c7 bd 30 a8 3c bc d9 7d ba 3d 94 b5 08 bd
       -0.097269535 -0.011514708 0.09106035 -0.03337629
000270 11 13 b7 3d 03 50 36 bd 87 10 45 bd 78 3f c1 bd
       0.089391835 -0.0445099 -0.048111465 -0.09435934
000280 70 ac 67 3c 8e b7 44 3d 7a b9 71 3d cb 0b ab 3d
       0.014140233 0.048026614 0.059014775 0.08351859
000290 7b 23 c5 bd d2 4d 5e 3d 4e c6 96 bd 00 c7 91 3c
       -0.09625908 0.054273434 -0.07362042 0.017795086
0002a0 b1 de bb 3d 88 5b e7 bc 20 a7 a9 bb ad b4 7c bd
       0.091733344 -0.028241888 -0.0051773936 -0.061695743
0002b0 7b 9d b7 bd 7f 7e af bd 80 27 c6 3b 20 3d f1 3b
       -0.08965584 -0.08569049 0.0060471892 0.007362023
0002c0 f0 a8 79 bc 28 32 86 bd 93 42 b4 bd 74 c1 b3 bc
       -0.015238032 -0.06552535 -0.088017605 -0.021942832
0002d0 a8 c7 ad bc 32 ea b8 bd f0 0d 4a bc ef ab 84 3d
       -0.021213368 -0.09029044 -0.0123324245 0.06478106
0002e0 6a 92 68 bd 34 47 8a bc 9d e7 2f bd 16 17 1d 3d
       -0.056780256 -0.016879655 -0.042945493 0.038352095
0002f0 74 44 aa 3c 12 e4 2e 3d 6e 5c 2a 3d c0 57 6e bc
       0.020784594 0.042697974 0.041592054 -0.014547288
000300 b3 4b 62 bd df 34 86 3d 4a ee 49 3d f0 b5 51 3c
       -0.055247974 0.06553053 0.049299516 0.012799725
000310 8a 30 55 3d 03 76 48 bd 80 27 51 bd 39 a8 8b 3d
       0.052048244 -0.04894067 -0.05106306 0.06819195
000320 30 5a 48 bc 98 fd 87 3c 48 95 96 3c 02 e6 25 3d
       -0.012228534 0.016600415 0.01838173 0.040502556
000330 83 35 2a bd d7 22 58 bd 14 39 03 bd 01 2e c4 3d
       -0.04155494 -0.0527676 -0.032036856 0.09579087
000340 d8 2f 66 bc ab 7e bc bd f1 d6 a9 3d d7 96 2b bd
       -0.014049493 -0.092038475 0.0829295 -0.0418919
000350 02 9e 1a 3d c0 f2 9e ba 99 c5 96 3d b6 82 7b 3d
       0.037748344 -0.0012126788 0.073619075 0.061403953
000360 ce 71 0f 3d 4d 58 22 bd a8 c8 48 3c ae a4 71 3d
       0.035020642 -0.03963499 0.012254871 0.05899494
000370 52 a4 7c 3d 12 71 18 3d 08 be ec bc 05 16 a5 3d
       0.061680146 0.037217207 -0.028899208 0.080608405
000380 92 72 01 3d ad e8 33 bd 57 ad c5 bd 73 f2 3a bd
       0.031603403 -0.04392307 -0.096522026 -0.045641374
000390 c4 bb f4 3c 92 17 a0 bd 67 20 83 3d 06 6e 03 3d
       0.02987469 -0.07816996 0.06402665 0.03208735
0003a0 43 2f 8a 3d 60 7d ab 3b 38 ce a1 bc 39 99 9e 3d
       0.06747296 0.0052334517 -0.019751653 0.07744069
0003b0 5a 86 15 3d ec 35 a8 bc 7e 7c 51 3d 2d 28 cc bd
       0.03650508 -0.020533524 0.051144116 -0.099686004
0003c0 a8 4c 0a bc aa d0 10 bd cf 5b af 3d ee 3e 9b bd
       -0.008441128 -0.035355248 0.08562433 -0.07580362
0003d0 6f 4c bb bd 8e 55 a2 bd f5 0a b3 3d 98 48 d7 bc
       -0.09145438 -0.079264745 0.08742324 -0.026279733
0003e0 a0 e6 d0 bc d9 e5 be 3d a8 49 57 3c 64 5d f8 3c
       -0.025500596 0.09321184 0.01314012 0.03031797
0003f0 1a a1 3f 3d 03 c6 5f bd e2 8d 6c 3d 49 d5 93 3d
       0.046784498 -0.054632198 0.057752497 0.07218415

fc2.bias f4 [10]
000000 a5 0b a9 bd 0a 6c cb bd 80 ad a5 bc 40 54 00 3b
       -0.08254174 -0.09932716 -0.020224333 0.0019581467
000010 fc 4c 13 bd dc 79 cf 3c 03 50 93 bd 00 4e 91 3a
       -0.03596209 0.025326662 -0.071929954 0.0011085868
000020 a6 14 50 3d 80 c4 c8 bc
       0.050800942 -0.024507761
